models/mnist_latent_decoder.pth (torch_old, 11144 bytes, 8 tensors)

decoder.0.0.weight f4 [64, 8]
00000000: e4a8 8a3f cbc1 c9bf d2fa c3bf feef 0f3f
00000010: c383 31c0 f58f f03c 5113 49bf 03b7 7fbf
00000020: 1bc1 6abf 7fdf 9b3f b415 fd3e b9af a0bf
00000030: 44c7 acbf 552b 053f 59bc 003e 8431 7bbe
00000040: 0870 11bf 08b8 f53e 7232 033f 2aab 863f
00000050: a721 9f3f de4a 223d 88f0 943e d158 e7bf
00000060: 2c13 62bf 2570 67bf 1791 5dbf 8fbc 6cbf
00000070: a823 aabf f905 80bf 2b9c 3f3f d151 34bf
00000080: c27b 5bbf c373 37bf c610 283f 5df5 9fbf
00000090: 1698 203f 7a7e e6bc 0b8b 2ebf e648 283f
000000a0: f41a b33f e697 9ebe f71b 09c0 65c4 23bd
000000b0: 85c5 82bf f941 5d3f a1d9 eb3f 784b 9a3f
000000c0: 5f7c 0fbf 7344 3abf d06d f03f a8f3 c93f
000000d0: c3bc 7b3e 655f bfbe 47a8 10c0 0c61 13bf
000000e0: 23e4 86bf a1e4 63be 6ac9 1540 91eb c83e
000000f0: f62d bf3e bd29 893d 3af5 babf e06d 6b40
00000100: 3a99 8f3f fab0 90bf ad59 0340 d61f 773e
00000110: c07a 1140 bc43 12bf 0e00 1f40 3de5 52be
00000120: aba6 a73e 5ce1 ae3f 25ba 053f 7a29 46bf
00000130: cc71 443f e08a 433f 0f33 3840 5373 e4bd
00000140: fd66 0c40 39c9 d1be 9f45 de3d 680c 9e3f
00000150: 104d 6140 f130 393e f330 4140 18f5 c8bf
00000160: a056 e8bd ebb8 52bf 96fe 8c3f c958 15bf
00000170: 43e5 16bf 8a3c eabe d9f4 683f 2452 6bc0
00000180: 9863 90bf 66a4 84bf 019d cabf 22cb 86bf
00000190: 2b52 49c0 f048 e73e 14b5 43c0 32d9 06bf
000001a0: 6662 07bf 51a6 86bf 24e3 b9bf 65fb e1be
000001b0: 2ecf 77c0 81d7 14bf 8e7d 27c0 a606 a3bf
000001c0: d870 07bd 15a7 86bf 5083 b1bf 4caf cebf
000001d0: 285d 4b3e 9ecd e73d 9f54 913f edcf 71bf
000001e0: 0c99 a8be 6ee9 9cbf e373 1540 9f56 443f
000001f0: 5a6c 123f bcbb 7bbf 20cf 64be 078b 283f
00000200: 8949 02bf b0ef abbe 8edb 16c0 2a0b 12bf
00000210: 7a55 04c0 100a 563e 84ff 16bf ebb5 07c0
00000220: b6e8 ea3f 6c9a 5abf 9fff 2ac0 d5a8 a2bf
00000230: 6db5 b7bf 03e5 903e 037f ed3f 71ec 25bf
00000240: 486e f0bf 342b 383f 9850 94bd 809f a1bf
00000250: 61b5 6ec0 8163 a43e e184 1fc0 dc31 e6be
00000260: f095 263e a550 ccbe d860 c8bf 0b25 3e3f
00000270: 8306 ffbf 1188 5ebe a0c0 df3f 70c6 85be
00000280: 662e 8340 ec4a cc3e 7005 ba3f c9f1 0e3f
00000290: 1b09 9f40 8b0c 6b3f de2d be40 b433 41bf
000002a0: ffe1 1240 f78f 5a3f 6064 34c0 03d3 c9be
000002b0: 1b54 d1be 6f85 f83e 217e cc3c 6ef7 38c0
000002c0: 7a10 cfbe b2db 1dbf d1bc ec3f 70da 6a3f
000002d0: 7d69 3e3f 7c5b 52bf 7f98 01c0 dd44 153d
000002e0: 2e92 61be b0b6 77bf e977 6bbe db05 b9bf
000002f0: f52d 2fbf b9a4 bd3d 7901 be3e d21b 943e
00000300: 8d0c 11c0 0e84 6d3d 4b6f c33f edd3 e23f
00000310: a2a1 8f3c 6790 f6be d6b2 19c0 2b82 5b3f
00000320: 9eea 52bf a5e6 6f3f e798 e43f f3b4 23bf
00000330: 471f fa3f a21f ccbd 5aa4 823f 7dd8 a2bf
00000340: b897 48be 4d13 b5bf 7536 63bc ff92 093f
00000350: 1e66 f7bf dba6 93bf ae6a debf 187e eabf
00000360: 0591 983f b14d 8cbf 0d8d d6bf b77d 75be
00000370: fcdd e7bf 540e 2fbe 4d37 823f c92f 0cbe
00000380: 3925 473f 8147 f93e fdda 923e 7ebb 8a3f
00000390: 1a1a c23f f24c 8f3f a079 f1be a18c debf
000003a0: aed4 82bf 7993 afbc d55e 29bf a80c 8a3f
000003b0: 410d 613f 6414 2fbe 556e ab3e 3df3 07c0
000003c0: 115d d63f 3d10 58bf 3c08 763f 8dbc 4c3f
000003d0: 2f95 2b3f 983d 8bbe 30c8 4a3f c00f 2cc0
000003e0: e99b 48c0 275c f7bc dbef 9d3f 3baf 1cbf
000003f0: 4743 25c0 6446 debe 97e6 0cc0 e0b1 6d40
1.0832791 -1.5762266 -1.5310919 0.56225574 -2.773667 0.029365519 -0.785451 -0.9988863
-0.91700906 1.217758 0.4943062 -1.2553626 -1.3498311 0.52019244 0.12571849 -0.24530607
-0.5681157 0.47991967 0.5124885 1.0520985 1.2432145 0.03962218 0.2908976 -1.807398
-0.88310504 -0.90405494 -0.86549515 -0.9247522 -1.3292131 -1.0001823 0.7484767 -0.7043734
-0.85735714 -0.71661013 0.65650594 -1.2496754 0.62732065 -0.02813648 -0.6818091 0.65736234
1.39926 -0.30975264 -2.1423318 -0.03998222 -1.0216528 0.8642879 1.842579 1.2054281
-0.5604915 -0.72760695 1.8783512 1.5777483 0.24583726 -0.37377468 -2.2602708 -0.57569957
-1.0538372 -0.22255184 2.3404183 0.39242223 0.37339753 0.06697414 -1.4606087 3.6785812
1.1218636 -1.1304009 2.0523484 0.24133238 2.273117 -0.57134604 2.4843783 -0.2059526
0.32744345 1.3662524 0.5223716 -0.7740704 0.7673614 0.7638378 2.8781164 -0.11154809
2.193786 -0.40973833 0.10853123 1.2347536 3.5203285 0.18085076 3.0186126 -1.5699797
-0.113446474 -0.8231341 1.1015193 -0.583386 -0.58943576 -0.45749313 0.9099861 -3.6768885
-1.1280394 -1.036267 -1.5829164 -1.0530741 -3.1456401 0.45172834 -3.0579271 -0.52675164
-0.5288452 -1.0519506 -1.4522443 -0.4413711 -3.8720202 -0.5814133 -2.6170382 -1.2736404
-0.0330666 -1.0519739 -1.3868198 -1.6147246 0.19859755 0.11318515 1.1353949 -0.94457895
-0.32929265 -1.2258737 2.3351982 0.76694673 0.5719658 -0.98333335 -0.22344637 0.6583714
-0.50893456 -0.33581305 -2.3571506 -0.57048285 -2.067717 0.20902276 -0.58983636 -2.1204784
1.8352268 -0.8539188 -2.6718519 -1.2707773 -1.4352242 0.28299722 1.8554386 -0.64813906
-1.8783655 0.7194092 -0.072419345 -1.26268 -3.7298205 0.32107165 -2.4924853 -0.44959915
0.16268134 -0.39905277 -1.5654554 0.74275273 -1.9923862 -0.21731593 1.748066 -0.26127958
4.099414 0.3990091 1.4532909 0.55837685 4.9698615 0.91816014 5.943099 -0.7546952
2.2950437 0.8537592 -2.8186264 -0.39418802 -0.4088448 0.48539302 0.024962487 -2.890102
-0.40442258 -0.61663353 1.8495122 0.9173956 0.7437971 -0.82170844 -2.0249326 0.036442626
-0.2202842 -0.96763134 -0.22994961 -1.4454912 -0.684295 0.09259934 0.371105 0.28927475
-2.266391 0.057987265 1.5268339 1.7720925 0.017533127 -0.48157045 -2.4015403 0.85745496
-0.8238925 0.9371131 1.7859162 -0.6394798 1.9540795 -0.09966971 1.0206406 -1.2722317
-0.19589126 -1.4146515 -0.013867964 0.53739923 -1.9328039 -1.1535295 -1.7376306 -1.8319731
1.1919256 -1.096121 -1.6761795 -0.23973738 -1.8114619 -0.1709531 1.0173126 -0.13690104
0.7779117 0.48687366 0.286827 1.0838468 1.5164216 1.1195357 -0.47163105 -1.7386667
-1.0221155 -0.021432625 -0.6616033 1.0785112 0.8791085 -0.17097622 0.33482614 -2.124221
1.6747152 -0.8439978 0.96106315 0.79975206 0.6702451 -0.2719543 0.7921171 -2.6884613
-3.134516 -0.030195309 1.2338823 -0.6120488 -2.5822313 -0.4341308 -2.201574 3.7139816

decoder.0.0.bias f4 [64]
00000000: ef3a aebe 86e1 c0be 5375 453f 5f98 5d3e
00000010: b812 913f 9b6e 9f3d 6aa2 0bbe 044c 5fbe
00000020: d784 7d3d 6207 68be 7d7b 25bf f9e2 eebd
00000030: fa59 6a3e 5fc0 e2be 76bc c2bf cda7 263e
00000040: 34d5 dc3e c0f2 fabe f2f5 993f 1335 e4bc
00000050: d3cb b03e 7766 2abf aa6d 67be b131 283f
00000060: 27b9 183f 8054 173e a862 fbbe 7c51 0ebf
00000070: fd7f f23d 4b4c fe3e 81d0 603f 8509 b2bd
00000080: 6bd5 79bf 6051 0f3e ca96 c23d 620c 8c3e
00000090: e4fb 0abe d6da 6fbe d596 853c b975 333f
000000a0: 5933 32be 76d5 90bf 23dd 473f b355 263e
000000b0: 5505 a2bd 6a40 ac3d 02af f0be 83d9 84be
000000c0: 595d 543d 06f5 b5be 90f0 e73e a116 f7be
000000d0: 32d2 6d3f f3fe 003f 1c10 8a3d 74cc a5be
000000e0: 19b3 febe e50f 4e3f 4aae 863d e59f d0be
000000f0: fb23 90be e94f 19bc 567e 69bf 37f1 a83e
-0.34029338 -0.3767206 0.7713215 0.21640156 1.1333838 0.07784768 -0.13636175 -0.21806341
0.061894264 -0.22659066 -0.64641553 -0.11664385 0.22885886 -0.44287392 -1.5213764 0.16274948
0.4313141 -0.4901333 1.2028182 -0.027857339 0.34530506 -0.665626 -0.22600427 0.65700823
0.5965752 0.14778328 -0.49098706 -0.55593085 0.11840818 0.49667582 0.8781815 -0.08693222
-0.97591275 0.13995886 0.09501417 0.27353197 -0.13572651 -0.23423323 0.016307274 0.70101506
-0.174024 -1.1315143 0.780718 0.16243629 -0.07911173 0.084107235 -0.4700852 -0.25947198
0.051846836 -0.355385 0.45300722 -0.48259452 0.9289886 0.5038902 0.06741354 -0.32382548
-0.49746016 0.80493003 0.06576212 -0.4074699 -0.2815245 -0.009357431 -0.912084 0.32996532

decoder.1.0.weight f4 [16, 64]
00000000: 759f 23bf bc7e a43e c530 ea3e ce75 8dbe
00000010: c03e 18bd a0d2 1b3e aa9e 8ebd 54f7 81bb
00000020: 093d 903e 4090 7e3f 605d 183f 0277 e53e
00000030: 4a99 77bf 883a c4be 379c 52bf 5838 94be
00000040: dff7 99bd 0a1b 6e3e 22b0 00be e259 563e
00000050: d509 493f 63d8 81be c203 d43d d998 63be
00000060: d563 15bd 80fc 203e b044 b8be ae81 39be
00000070: 769c 5e3e e91f 49bc 9aab 2d3e 5e11 aebe
00000080: 7cf6 31be ffa1 eebe 1dd5 ea3e afb5 cf3a
00000090: 2496 92bd 95d2 3e3e 9889 83bf 0c7f 7ebe
000000a0: 1e1d 1bbe b589 de3d 17bd e2be 1fab a73e
000000b0: 80b7 843f ead7 49be 5d1a 3bbf e51a a2bd
000000c0: e6b7 45bd c231 50be ba31 fdbe f6dc 2bbd
000000d0: f917 8cbe 296e b6bc 274b 33bf 64d8 f73e
000000e0: c742 413e e825 cdbd 0367 edbd 62de 053e
000000f0: 3763 28be 3488 913d 473b 143f 9bb8 aebe
00000100: fa0a 143f e878 e6be 3db3 563d 6e49 6ebe
00000110: 2227 66be b6f0 bebb df74 283f 81ef b23a
00000120: dcf1 f8bd baaf a8be 1697 533f 2303 3c3d
00000130: 94f8 b0be 95b0 c43d 8074 4e3f 550c d9bd
00000140: 4705 fbbd 8d6d 1b3e b1e5 e43c eb14 163d
00000150: 3356 603e fefc f43d 0af5 8cbd 0132 b8be
00000160: 6b56 49be b1d5 6fbe f003 7b3e 06f0 0e3e
00000170: 3278 a63e abb6 93be c794 023e bcd9 5cbe
00000180: a026 c03e fd7a 87be 7ac5 ea3c eec9 de3c
00000190: afce f33e 2140 e33e c169 693c 027d 9cbe
000001a0: 5f91 2abe 331b a73d 9fea 36bf afbf 70be
000001b0: d17b 4a3f d1f1 59be f239 f7be 7ee8 9ebe
000001c0: 91bc 24bb 5e17 143e 01f4 4cbe fa5c 093e
000001d0: 6e64 bc3c 9c12 7ebd 738b 0abe a16b d93e
000001e0: 361a 3cbe 03a9 e7bd 6ca3 78bc 8177 24be
000001f0: 5eca 243f 189a 87bf 55fd dbbd 8211 2cbe
00000200: 5a60 9c3e fae8 f83c 0dbe c5be 83dc 5a3e
00000210: 5d3b 033d f8ab 8bbe cd83 123f 4572 e13d
00000220: 37ce a4bf 6f81 5ebf 471d bdbf 6bad ae3e
00000230: 00ed 5d3f edbe 4c3f ebff fcbe 1d1d d0be
00000240: 9c7c 433d ae60 3f3e d881 0b3f 4186 b7ba
00000250: e9db 6abf 9179 12be 7314 873d 6103 6abd
00000260: c974 8a3d a158 87be 79ce e33e 699a 0e3e
00000270: 0cb8 24bf 6487 c5be 8aa7 b0bd d235 323f
00000280: 74fe 213f 0d4b 2b3f 2724 fbbd a059 72be
00000290: afd5 4dbe 4e90 023e 21c0 7c3f 16fc 053f
000002a0: 5fe6 e73d a77d 54be 4f72 efbd 55b1 2abf
000002b0: 0e2a 943e cd80 833d 65ef 163e 48b3 24be
000002c0: 2d98 8f3d 226c f13d 6c04 e63e a257 d73e
000002d0: 63dd 503e 5618 afbd eb46 b53c 8d70 48be
000002e0: 444b c6bd d9a8 97bd ea5b 713e fea1 063f
000002f0: 83d9 0cbf 9ef8 18be 87ff 6abf d753 7bbd
00000300: c603 16be 3394 eabd 983d 03bf 8380 fdbe
00000310: dc22 18be 27d6 69bd da7e 3e3f fa1c 133f
00000320: 7636 1cbf c7ce c1be c74d 14bf c703 c7bf
00000330: 6347 cd3d 78d9 57be a821 a33f 3aa1 b53d
00000340: 4635 2abe a21f 27bf f5ee 6cbe 2b4b 77be
00000350: e1ea 4abe 3c1a 9b3d 84bf 143c b0f2 cfbe
00000360: 806d c33e 06bb 21be 67c6 4dbe b287 04be
00000370: 1447 dc3e 59c8 32be a9e1 9cbe 2ca7 223f
00000380: 621d bd3e bd02 f2bd 75a7 63be 1e4e be3e
00000390: 25d9 0e3f e259 0f3e 2a8a 433f 0bce af3e
000003a0: ef7b 42be ea76 b53a ae0b bfbe fcf0 23bd
000003b0: e8b8 c5be 33fe 72bd f563 383e 74e1 473e
000003c0: c60f 003f 5ac0 873e deb6 873e 5d40 c13d
000003d0: 08e8 57be 553b 993d dabb 79bb 9ea2 453f
000003e0: e207 10bf 837d d7be 836f 093f a9c8 513e
000003f0: 21a2 03bf a761 07c0 17ad 4dbe 53b8 81be
-0.6391519 0.3212794 0.45740333 -0.2762894 -0.037169218 0.15217066 -0.069638565 -0.0039662514
0.28171566 0.9943886 0.5951748 0.44817358 -0.96718276 -0.38325906 -0.82269615 -0.28949237
-0.07517981 0.23252502 -0.1256719 0.20932725 0.7853063 -0.25360402 0.10352279 -0.22226276
-0.03647216 0.15721321 -0.35989904 -0.18115875 0.21739373 -0.012275674 0.16959992 -0.33997625
-0.17379183 -0.46607968 0.45865718 0.0015846993 -0.07157543 0.18635018 -1.0276365 -0.24853152
-0.15147826 0.10866109 -0.4428489 0.32747743 1.03685 -0.19711271 -0.730871 -0.07915286
-0.048271082 -0.20331481 -0.49452 -0.04195877 -0.2736204 -0.022269325 -0.7003655 0.4840728
0.1887313 -0.10016996 -0.115919136 0.13073114 -0.16444097 0.07106057 0.5790295 -0.34125218
0.5782925 -0.4501412 0.05241703 -0.23270199 -0.22475865 -0.005827035 0.6580333 0.00136517
-0.12155506 -0.3294657 0.82652414 0.04590143 -0.3456465 0.09603993 0.80646515 -0.10598055
-0.12256866 0.15178509 0.027941557 0.036641043 0.21907882 0.11962317 -0.06882675 -0.3597565
-0.19661872 -0.2342136 0.24513221 0.13958749 0.32513577 -0.28850302 0.12752067 -0.21567434
0.3752947 -0.2646102 0.028658617 0.027195897 0.47618625 0.44384864 0.014246405 -0.30564123
-0.16657017 0.08159485 -0.71451753 -0.23510621 0.7909518 -0.21283652 -0.48286396 -0.31036752
-0.0025136808 0.14462039 -0.20014955 0.13414374 0.022997107 -0.062029466 -0.13529758 0.42464927
-0.18369374 -0.11311533 -0.015175682 -0.16061212 0.6437129 -1.0593901 -0.107416786 -0.16803554
0.3054226 0.03038453 -0.3862156 0.21373181 0.032039035 -0.2727964 0.5723236 0.11008123
-1.2875432 -0.8691625 -1.477456 0.34116682 0.8668976 0.7997883 -0.49414 -0.40647212
0.04772626 0.18689224 0.54495 -0.0014001803 -0.91741806 -0.14304186 0.06595697 -0.05713213
0.06760556 -0.26434806 0.44493464 0.1392609 -0.64343333 -0.38579857 -0.086257055 0.69613373
0.6327889 0.66911393 -0.12262755 -0.23667002 -0.20101045 0.1275036 0.98730665 0.5233778
0.11323237 -0.20751058 -0.116917245 -0.6667684 0.28938335 0.06421051 0.1473976 -0.16084015
0.07011447 0.11788203 0.4492525 0.42059046 0.20396952 -0.085495636 0.022128543 -0.19574185
-0.096823245 -0.07405252 0.23570219 0.5259093 -0.55019397 -0.1493859 -0.91796154 -0.061359253
-0.14649877 -0.11454048 -0.5126586 -0.4951211 -0.14857048 -0.057088997 0.7441231 0.5746609
-0.610206 -0.3785307 -0.5793118 -1.5548028 0.100233816 -0.21079051 1.2744646 0.08868642
-0.16621885 -0.6528264 -0.2313803 -0.24149768 -0.19816162 0.07573363 0.009078864 -0.40614843
0.3816948 -0.15794 -0.20095216 -0.12942389 0.43022978 -0.17459239 -0.30640915 0.63536334
0.3693648 -0.118169285 -0.22231849 0.37168974 0.55800086 0.13999131 0.76382697 0.34336886
-0.1899259 0.0013844643 -0.37313598 -0.040024742 -0.38617635 -0.059324455 0.1800688 0.19519597
0.5002407 0.2651394 0.26506704 0.094361044 -0.21084607 0.0748202 -0.0038106353 0.7720126
-0.5626203 -0.42087945 0.5368578 0.20486702 -0.51419264 -2.1153352 -0.2008556 -0.2533594

decoder.1.0.bias f4 [16]
00000000: d172 0f3f a6a1 b7bc 498b 5f3f c6d8 89bd
00000010: ebae ad3e 8412 2dbd c460 723f df33 0f3e
00000020: 96ba 55be 2bdf f33d faff 073f 17f6 29bf
00000030: aaae 353e 113d dd3f defc cabe 5fd1 82be
0.5603457 -0.022415947 0.8732191 -0.067307994 0.33922514 -0.042253986 0.946789 0.13984631
-0.20871958 0.119078 0.53124964 -0.6639113 0.1774241 1.7284261 -0.39646047 -0.25550362

decoder.2.0.weight f4 [32, 16]
00000000: 7dbd 8d3e b8b5 2c3f 1505 9bbc ebac 663e
00000010: b047 4abe 3dab 223e 4a6f 35be df42 9cbe
00000020: 5e51 efbe e593 58be 34e6 6b3e 49e3 b5be
00000030: a1d1 1c3d 08b1 1f3e e195 18bf 6d49 afbe
00000040: 49e8 563e c091 1c3e 66f0 b33e e0a1 ab3d
00000050: d807 20be d14f 9abe 7258 6dbe 6caf b8be
00000060: 27a5 fabe 2ace 503e b1a0 043f aac0 2cbe
00000070: 546b 153d 150a 193e 286b aabe d72e 8ebe
00000080: adb9 dc3d 32d1 c63d 0fc1 0e3d 612f 493d
00000090: 0112 6cbe 5c55 f1be e5b2 753e db13 13bf
000000a0: 423d 48be e0f8 d43e 6b7f 353e d524 903e
000000b0: 8816 ac3d 957f 953e 78dc 28be e0e4 1d3d
000000c0: 5991 a23e a2fe 75be 95ab fa39 fffc 90bd
000000d0: f5f3 21be c8ae a0be 642c 5e3e 2483 363d
000000e0: 3efb 2bbe b3ef 113e f4b9 bd3d 73df 30be
000000f0: 7e4d 14be 09ee 9f3e 352a 83be e5f4 ed3d
00000100: 4c07 823e 04cd a83e b5dc 533e b585 2bbe
00000110: 2397 8dbd 08cd e73e 6ecb 4cbd dbb8 1a3f
00000120: 2f53 cd3d 513f a73e 863f ba3d 6119 d03e
00000130: b05b 75be 51b6 10bf 0817 c13b 89ea 51be
00000140: 9e0a 10bf 4dea b4be a7f1 283f ee78 4b3e
00000150: 8303 f03e c8ad bd3e 340f 94bd 8868 043f
00000160: 4bdb 553c 2a6e b8be 8b83 163e c1c7 fabe
00000170: f86b 8d3f f1b4 a7bd 3280 f93d 84bc 2f3e
00000180: 236a c53e de87 01bf 39fc 7e3e da6d 0cbf
00000190: 0325 883e 3e20 eb3e 584e 2fbe 2a3d 133f
000001a0: f7e5 c4bd 52a8 343f 0dff 7f3e 21dd bc3e
000001b0: c500 4abe 08c0 bdbe dbe6 04be 85f1 c83e
000001c0: 6d5c 843e 058b 203f b807 733d 5f3d bc3e
000001d0: b569 ae3d 5259 a83e 7484 78bd 8091 c43e
000001e0: 12e6 b1bd 075b c1be ac22 15bd 0592 c6bd
000001f0: 28af 43bd ecb0 a3be 871e c43d fe1a 6bbf
00000200: 1ac0 d4be 45c0 69be 2836 9e3c 9464 8abe
00000210: f7d8 b83d a25d 9f3e 291d 153f 653a 693d
00000220: 95e0 5b3d 769e 0f3f 5169 e6bd 76df 603d
00000230: 41e8 11be 1ff9 e53e 3dd9 75be e770 02be
00000240: aed3 b7bd 15d9 aebe bade 3fbd df57 02be
00000250: 69ae 99be 1f32 813d 537a e5bd 61ac 923d
00000260: 84a3 78bd 60a2 b43e 367d f2bd 2ff8 923e
00000270: d2ec c1bd b66d 69be 6a33 503e 8ca9 7ebb
00000280: 44c0 bfbe b093 a1be ebc6 54bc 35ca 343e
00000290: 848f 313f 0352 a63e a740 003f 081b 0f3f
000002a0: 2318 e9bd 027e f6bd c2ad 9cbe d435 e1be
000002b0: d03e 973e 2caa fa3e 4e3d 9dbd 5a58 00be
000002c0: 17a4 bbbd b432 ce3e d054 ff3e 5a0e bdbe
000002d0: 66ba 33be 9de3 523e 3728 d8bd aee8 a33e
000002e0: 7624 05be cc2d aa3e f9b4 503e dee1 ba3e
000002f0: 603d 063f 528c 153d 48ae 93be 911c 54be
00000300: 3263 e73e 1ab9 33be 3d2e 293c 3263 08bd
00000310: 94e7 2d3e 92b3 a7be 53b8 1abc ac5e b2be
00000320: 8164 2b3e 2d09 013f e7ed b43e baaf e53d
00000330: 1877 d53e 5147 cfbd 8037 643e d43b af3e
00000340: 262f 7d3f 4f74 353f 7ec6 68be baa7 ea3d
00000350: 0350 91bb 69be 8d3e 1ee1 f73d 5604 adbe
00000360: d7a2 b4be 736f bbbe 896a be3e 4293 eabe
00000370: e67c f9be a07d 4e3e c9e2 94bc 1dbd a4be
00000380: 292a 503c b086 ce3d e2df e1bd 4c28 9cbd
00000390: 63b6 623e e79a a4bd 6428 9f3d abf9 0f3e
000003a0: 28b3 36be 0356 6dbe 9278 7abe ac7b d03e
000003b0: 3724 d13e 3fd0 ee3d 667a 103e 2056 ecbe
000003c0: 7c89 dfbd 7823 253f 91f8 0a3f 44d8 7c3c
000003d0: e189 58be 43f9 98be fcca a1be 012d 8ebc
000003e0: 9c85 4bbe 75ad cf3e c1a4 a73d b279 6b3f
000003f0: b5d5 3a3e 4642 c5be 10ea f0be 61a8 01be
0.2768363 0.6746478 -0.018923322 0.225269 -0.19753909 0.15885635 -0.17718235 -0.3051977
-0.46741766 -0.21150167 0.23037034 -0.35524967 0.038285855 0.15594876 -0.596037 -0.34235707
0.20987047 0.15289974 0.35144347 0.083804846 -0.15627992 -0.3013902 -0.2317827 -0.36071336
-0.48954126 0.20391145 0.51807696 -0.1687037 0.03647931 0.14945252 -0.3328488 -0.2777011
0.10777602 0.097078696 0.034852084 0.04911745 -0.23053743 -0.47135437 0.23994024 -0.5745217
-0.19554618 0.41596127 0.17724387 0.281531 0.08402735 0.291989 -0.16490352 0.03854835
0.31751516 -0.24022916 0.00047811554 -0.07079505 -0.15815718 -0.31383348 0.21696621 0.04455866
-0.1679506 0.14251594 0.09263983 -0.17272739 -0.14482686 0.31236294 -0.2561814 0.116189755
0.25396192 0.32968915 0.20689662 -0.16750224 -0.06913593 0.45273614 -0.049998693 0.6043832
0.10025632 0.32665494 0.090941474 0.40644363 -0.23960757 -0.5652819 0.005892638 -0.20499624
-0.562662 -0.35335007 0.6599373 0.1987035 0.4687768 0.37046647 -0.07229462 0.51722
0.013052772 -0.36021549 0.14698617 -0.48980525 1.1048574 -0.08188809 0.121826544 0.17161757
0.38557538 -0.5059794 0.24900903 -0.5485512 0.26590738 0.45923036 -0.1711973 0.57515204
-0.09614175 0.70569336 0.24999638 0.36887458 -0.19726856 -0.3706057 -0.1297869 0.39246765
0.25851765 0.62712127 0.059333533 0.36765572 0.08516256 0.32880646 -0.060673192 0.38392258
-0.086864606 -0.3776476 -0.03641002 -0.0969582 -0.047774464 -0.31970918 0.09576135 -0.9183806
-0.41552812 -0.22827251 0.019312933 -0.2702986 0.09025758 0.31126124 0.5824762 0.056940455
0.053680975 0.5610117 -0.11250556 0.05490061 -0.14248754 0.44916627 -0.24008651 -0.12738381
-0.089759216 -0.34149995 -0.046843268 -0.12728833 -0.30015877 0.06308388 -0.11204972 0.07161785
-0.060702816 0.35280132 -0.11840288 0.28704974 -0.09468998 -0.22795758 0.20332113 -0.0038858382
-0.37451375 -0.3155799 -0.012986879 0.17655261 0.6935961 0.32484445 0.5009865 0.5590062
-0.11381557 -0.12035753 -0.30601317 -0.4398638 0.2954011 0.48957956 -0.076777086 -0.12533703
-0.09162157 0.40273058 0.49869394 -0.36925012 -0.17551574 0.2059464 -0.105545454 0.32013458
-0.1300219 0.33238065 0.20381536 0.36500448 0.524374 0.036510773 -0.28843904 -0.20714022
0.45192868 -0.1755108 0.0103259655 -0.033297725 0.16982871 -0.3275419 -0.00944336 -0.34837854
0.16737558 0.50404626 0.35337755 0.11215158 0.41692424 -0.101210244 0.22286797 0.34225333
0.9890007 0.708806 -0.22731969 0.114577726 -0.004434587 0.27684334 0.121034846 -0.3379237
-0.35280487 -0.36608467 0.37190655 -0.45815474 -0.48728102 0.2016511 -0.018174546 -0.32175532
0.012705364 0.10084283 -0.110290304 -0.076248735 0.22139888 -0.08037358 0.07771376 0.14060085
-0.1784178 -0.23177342 -0.24460056 0.40719354 0.40847942 0.116608135 0.14109191 -0.46159458
-0.10914895 0.64507246 0.5428553 0.015432421 -0.21146347 -0.29877672 -0.31600177 -0.017355444
-0.19875187 0.40562025 0.08185721 0.9198257 0.18245585 -0.38527125 -0.47053576 -0.12661888

decoder.2.0.bias f4 [32]
00000000: 94d0 823e a96b 0dbe 31c5 b23e 8d47 89be
00000010: 98da 6ebe 7848 2f3e 8dfb 1bbe 6c10 cd3e
00000020: 8f53 50be 0e48 c6be e4df 23bd f2b6 dfbd
00000030: e3fd 5ebe 0714 d63d c6aa d0bd 3530 2b3f
00000040: e813 99bc 1865 d4be 7a20 8b3e a24e 3b3f
00000050: ee4a 433e fa83 073e c52d d83e 699c a8be
00000060: c727 07c0 3a31 f93e ad0d 0f3f eb8a 4f3e
00000070: 3354 153e 3570 7a3d 82f8 653e 8326 cbbc
0.25549757 -0.138106 0.3491607 -0.268124 -0.23325574 0.17117488 -0.15232678 0.4005159
-0.20344375 -0.38726848 -0.04000844 -0.10923566 -0.21776538 0.10453039 -0.101888224 0.66870433
-0.01868625 -0.41483378 0.27173215 0.7316686 0.19071552 0.13233939 0.4222242 -0.3293183
-2.1118028 0.4867037 0.5588024 0.20267837 0.145829 0.061142165 0.2245808 -0.024798637

decoder.3.weight f4 [8, 32]
00000000: 0704 a33d d605 07bd f623 1dbd dad8 6cb8
00000010: c016 253e 0776 ae3e 9f4a 783d 1b0c f1bc
00000020: 0d17 16be 7f1a 3dbe 6532 bd3b 4851 cdbe
00000030: 2a3f 943e 68f9 1c3d 4337 8dbd 4f66 b23e
00000040: bbde 5abe 1085 97bd b4e5 a0bd a317 a23a
00000050: 1920 c7be 4996 b33e 00b0 c03d 2049 a8ba
00000060: 78da 30bd f890 a03e a623 91bb 8bbe 2dbe
00000070: 8ea0 5abe a17a 5e3d f5d0 d3be 106e 2dbe
00000080: 0a9c a1bd 3d70 8abd df7b f2bd 98d4 4ebe
00000090: c465 243c 932c afbe 8511 4f3e b093 dfbd
000000a0: 70be 1ebe 5e4f 9ebb 2ed1 e9bd 4bbd 49be
000000b0: de71 2abe b8d1 bdbd 056f aabe da08 453e
000000c0: 069d e83d c7a8 8bbd b41b 243c f3da d73c
000000d0: 7a13 dbbd 9549 d53e bf57 133f 834a 383a
000000e0: ff07 3fbe 609c 42bc 2ef9 a03c 65ff 663d
000000f0: 9fcc 333d cd13 8b3e c3a5 e2bd 6509 093e
00000100: fcb5 8f3e 8d5c e13c 41bb 08bf 06e1 36bd
00000110: 3ac3 9bbc bbf8 1bbf 00a9 a5be 6f9b dd3d
00000120: 3719 a0be e6ed c9be a6fd ee3e 50bb 8a3e
00000130: 1010 0a3e 315c d23d f0d1 84bd 16f4 dbbe
00000140: b3a4 cebe 3390 ef3e 3dc5 543e 84f5 eb3d
00000150: 01a9 333f 6f45 e8be ec69 5fbf 18a2 163c
00000160: c978 0d3e 77ca 033e 26ea 34be 41e9 ac3d
00000170: 74aa 04bf 719f 08bd d68c 903e 6c74 f5be
00000180: d22f dbbe ba8f 473e ea2a 0ebe 18c9 a23e
00000190: c9ec 933e 2de2 14be cd8f a0bc eb7a bcbe
000001a0: 6ede 9a3e 540f 873e a9f0 9ebe e148 9b3e
000001b0: 27e4 b53e 2610 a73d 7fc4 ab3c 6c6e 9bbd
000001c0: bd61 df3d 1e0c d8bc e641 26be 038a 0dbe
000001d0: 43af 6fbe 129f 4f3c d608 1b3f 3e31 f0b9
000001e0: 44e5 a73d 5c00 76be 3125 81bd bdb1 8abd
000001f0: 282c 893e 749d d8be ccb5 503e 6e14 913e
00000200: 4929 b1bd d44a 6fbe ef72 d6bd 83b1 20bd
00000210: e141 093e 4236 3dbe c097 31be fec2 afbe
00000220: 2488 ba3d 837c 05be 85c6 79be 5e9f 5fbe
00000230: c4de 1c3f 8a08 afbd 55ab 033e 0f56 453e
00000240: ac90 b43d b419 593e a4fb 5f3e ad0e 5f3e
00000250: 055a 1fbf 9d97 123e 1ef7 cf3e 2689 d5b9
00000260: 2e79 2cbe 341b 553e 8bf9 d13d 3d3d 703e
00000270: 170a d7bd 918a 4fbd 6f19 b4be 0e0d 003e
00000280: 9a6f 4b3d 71ec 77be 0a05 f9be cc7f 65bd
00000290: e0c9 a43d 259a c1bd e08a b53c 3255 3a3e
000002a0: cfc4 be3d ef7f 74bd 38a3 063e b096 163d
000002b0: e44c a0bd f837 503e aba6 f4b9 7fb0 e4bd
000002c0: 9b70 4abe 96e4 78bd ee39 1a3e 34a4 c33d
000002d0: 9b51 683e b41d 7d3d e041 acba 7365 ecb9
000002e0: ccd2 15be 843d 2039 5451 d2bd 2abc 023e
000002f0: 49fc 9dbc f01b 5a3d 1bc3 20bf f395 91be
00000300: 47e4 a1be 5aa2 efbe 8913 e33c 1050 02be
00000310: 1371 9a3e ad97 ad3e 0ba9 c73e 5707 d23d
00000320: 9bc2 77bc c197 2e3e 0b35 753d 2b10 f13e
00000330: f476 f1bd ec71 893e 3b70 7dbd 9183 e63d
00000340: e158 963d bff4 2abf 4479 a1be 31ea ebbd
00000350: 4f1b 05bf 2319 423f 4247 a53f 617f 9f3b
00000360: 208d 523f 6fdc 10be 38a1 c03d 7733 dcbd
00000370: 7b7b 4f3f 1ed6 fc3d 0f99 bcbf ff2f dc3d
00000380: 1413 abbd 69cc c43c 2644 c6bc 637f 8dbe
00000390: 44b9 25bd 2d7f 91be bbe5 1bbe 48d0 2d3e
000003a0: 1bdc e33e 2590 b73d c917 de3e 8f07 823e
000003b0: 857f a7be d114 bb3e 64bb 233e 6176 493d
000003c0: 03e0 863c a6a4 ba3d fae2 87be 760c 8c3d
000003d0: 122a 3e3e a4b3 04bf 78f7 ddbe 99ec bb37
000003e0: da6f 1ebf c4c6 a7bd c26f 22be 1fbc c33c
000003f0: cbfa bbbc d2e2 ca3d 4770 83bd 44a8 56be
0.079597525 -0.03296455 -0.038364373 -5.6468743e-05 0.1612196 0.34074423 0.06061804 -0.029424718
-0.1465723 -0.18467139 0.0057738298 -0.40101075 0.2895444 0.03832379 -0.06895306 0.3484368
-0.21374027 -0.073984265 -0.078563124 0.0012366663 -0.38891676 0.35075596 0.09408569 -0.0012839176
-0.043177098 0.31360602 -0.0044292985 -0.16967218 -0.21350309 0.054316167 -0.4137036 -0.16936517
-0.0789109 -0.06759689 -0.11840033 -0.20198286 0.010034028 -0.34213695 0.20221527 -0.10916841
-0.15502334 -0.0048312386 -0.11416851 -0.19701116 -0.16645 -0.09268516 -0.33287826 0.19241658
0.11358075 -0.06819301 0.010016371 0.02634952 -0.10697074 0.416577 0.57555765 0.0007030146
-0.18655394 -0.011878103 0.019650068 0.056395907 0.043896314 0.27163544 -0.11066773 0.1338249
0.2806853 0.027509952 -0.53410727 -0.044648193 -0.01901399 -0.6092641 -0.323555 0.10820662
-0.31269237 -0.39439315 0.46677893 0.27096033 0.1348269 0.1027149 -0.06485355 -0.4295966
-0.4036003 0.46789703 0.20778365 0.11521438 0.70179754 -0.45365474 -0.87271 0.00919392
0.13815607 0.12870203 -0.17667446 0.08442927 -0.5182259 -0.03335518 0.2823245 -0.47940385
-0.42809922 0.19488421 -0.13883558 0.31794047 0.2889159 -0.14539404 -0.01959982 -0.3681253
0.30247825 0.26378882 -0.31042984 0.3032904 0.3552563 0.08157377 0.02096772 -0.07589421
0.10907314 -0.026372965 -0.16236076 -0.13822179 -0.23406701 0.012672203 0.6056036 -0.00045813055
0.08198026 -0.24023575 -0.06305922 -0.06772182 0.267915 -0.42307627 0.2038185 0.283359
-0.08650453 -0.23368388 -0.104711406 -0.03923179 0.13404037 -0.18477729 -0.17343044 -0.34328455
0.09107998 -0.13035779 -0.24392135 -0.21838138 0.61277413 -0.085465506 0.12858327 0.1927111
0.088166565 0.21201211 0.21873337 0.21782942 -0.62246734 0.14315648 0.40618223 -0.0004072871
-0.16843101 0.20811158 0.10252675 0.2346086 -0.10499971 -0.050669257 -0.35175654 0.1250498
0.04966698 -0.24211289 -0.48636657 -0.05603008 0.08046317 -0.09453229 0.022160947 0.18196562
0.09314882 -0.05969232 0.131482 0.0367648 -0.07827166 0.2033385 -0.00046663484 -0.111664765
-0.19769518 -0.06076487 0.15061161 0.09552804 0.2268738 0.061795905 -0.0013142191 -0.00045089013
-0.14631194 0.00015281705 -0.10269418 0.12767091 -0.019285338 0.0532493 -0.6279771 -0.28434715
-0.31619474 -0.46803552 0.027719276 -0.12725854 0.30164394 0.33904782 0.38996157 0.10255306
-0.015122081 0.17050077 0.05986504 0.47082648 -0.11790267 0.26844728 -0.06187461 0.11255563
0.07341171 -0.667797 -0.3153783 -0.11519278 -0.51994795 0.75819606 1.2912371 0.0048674797
0.8224659 -0.14146589 0.0940575 -0.10752004 0.8104779 0.12345527 -1.473421 0.10751342
-0.08353248 0.024023252 -0.024202418 -0.2763625 -0.040459886 -0.2841734 -0.15224354 0.16973984
0.44503865 0.0896304 0.43377522 0.25396392 -0.32714477 0.3653932 0.15989453 0.04918516
0.016464239 0.091134354 -0.26540357 0.06838314 0.18570736 -0.5183661 -0.43352866 2.2402312e-05
-0.6188942 -0.081922084 -0.15862945 0.023893414 -0.022946736 0.09906544 -0.064178996 -0.20962626

decoder.3.bias f4 [8]
00000000: d439 4b3e f6ce b33e e57d bb3b 11de 06bf
00000010: 5bca 013f 6d38 bdbe d316 a93f 3248 eebd
0.19846278 0.35118836 0.005721795 -0.52682596 0.50699395 -0.36957112 1.321009 -0.11634864
