models/mnist_latent_encoder.pth (torch_old, 11144 bytes, 8 tensors)

encoder.0.0.weight f4 [64, 8]
0	0x3f20c78d	0.6280449
1	0x3fc7b348	1.5601587
2	0x3f47f05e	0.78101146
3	0x3e6898de	0.22714564
4	0xbf9d546a	-1.2291386
5	0xbf86ccd2	-1.0531256
6	0xbf85fce6	-1.0467803
7	0x3f57cbf3	0.84295577
8	0x400c4a94	2.192052
9	0xbff17c13	-1.886599
10	0xbf71971e	-0.9437121
11	0xbfdcf2ff	-1.7261657
12	0x3f8a648a	1.0811932
13	0xc00a4e6e	-2.161037
14	0xbffaf4f8	-1.9606009
15	0x3f261282	0.6487199
16	0x40019d68	2.0252323
17	0xbfe1f5b9	-1.7653114
18	0xbf88cd93	-1.0687736
19	0xc0028dcb	-2.0399044
20	0x3ff21fc3	1.8915943
21	0xc019ce46	-2.403215
22	0xbf6f76a8	-0.9354043
23	0x3d252b23	0.04032434
24	0x41089d1f	8.53836
25	0xc093987d	-4.6123643
26	0xc08627a4	-4.192339
27	0xbf1afdb9	-0.605434
28	0x40278b09	2.617861
29	0xbed074f7	-0.40714237
30	0x3f74f18c	0.9568107
31	0xc0409128	-3.0088596
32	0x3fae1c37	1.360236
33	0xbff8aecc	-1.9428344
34	0xbfa65857	-1.2995709
35	0x3fbbddde	1.4677083
36	0xbfe9696d	-1.8235298
37	0xc0469617	-3.1029108
38	0x401a43aa	2.41038
39	0xbf92740d	-1.1441666
40	0x3f2b216a	0.6684786
41	0xbe570757	-0.20998894
42	0xbf89a23f	-1.0752639
43	0x3f9768df	1.1828879
44	0x3f5eec83	0.8707964
45	0x3f565ac8	0.8373227
46	0xbf8c2270	-1.094801
47	0x3fe12b25	1.7591292
48	0xbedd66d8	-0.43242526
49	0x3e60252a	0.21889177
50	0xbebaa5cd	-0.3645462
51	0xbf4c22a5	-0.79740363
52	0xbf79d78c	-0.97594523
53	0xbff59047	-1.9184655
54	0x3f994ef7	1.1977223
55	0xbf6267af	-0.8843946
56	0xbfa94344	-1.3223653
57	0xbe20e449	-0.15712084
58	0x3e888c62	0.26669604
59	0x3e8bd5d5	0.27311578
60	0xbf18c145	-0.59669906
61	0x3f069b1e	0.5258044
62	0xbe7e3dc9	-0.24828257
63	0x3f0dd059	0.5539604
64	0xbfa55c1f	-1.2918738
65	0x3edb5cd2	0.42844254
66	0x3f57c1b9	0.8427997
67	0xbfab463f	-1.3380812
68	0xbf5941a9	-0.84865814
69	0xbf54770c	-0.8299415
70	0x3f35a387	0.7095265
71	0xbfbc0ae2	-1.4690821
72	0x3f98183e	1.1882398
73	0x4024a5a5	2.5726101
74	0x3fc27a94	1.5193658
75	0x3f5b4d59	0.856649
76	0xbe984068	-0.29736638
77	0x400729b1	2.1119196
78	0x3e8c8508	0.27445245
79	0xbf9cbcb1	-1.2245084
80	0xbf873602	-1.0563357
81	0xc00c29dc	-2.190055
82	0x3e771e8f	0.24132751
83	0xbf2df56b	-0.67952603
84	0x3fa23e50	1.2675266
85	0xbf8d1515	-1.1022059
86	0xbed8f0c3	-0.42371187
87	0xbe43fef4	-0.19140226
88	0x3e1ba1a4	0.1519838
89	0xc02be6a1	-2.6859515
90	0xbff20be5	-1.890988
91	0xbf61f91a	-0.88270724
92	0x3f104fcb	0.56371754
93	0xbf2abd7e	-0.6669539
94	0xc01db206	-2.4639907
95	0x3f93ac14	1.1536889
96	0xc057d5d2	-3.3724256
97	0x401cad57	2.4480798
98	0x3f1aee8b	0.6052024
99	0x4040d884	3.013215
100	0xc05617f8	-3.345213
101	0x3f34783a	0.7049595
102	0x3e99b75d	0.30022708
103	0x3fa3efe9	1.280759
104	0xbf591ad3	-0.84806556
105	0x3d86773b	0.0656571
106	0x3f1501db	0.58205956
107	0x40074549	2.1136038
108	0xbed04779	-0.4067953
109	0xbe935180	-0.28773117
110	0xbcbf7641	-0.023371818
111	0x3e8e486a	0.27789623
112	0x3e21951d	0.15779538
113	0xc062a294	-3.541173
114	0xbf97d063	-1.186047
115	0x40311259	2.7667449
116	0xc08f559c	-4.4792004
117	0x3ec329ea	0.38117915
118	0x405df36d	3.4679825
119	0x3e85c983	0.26130304
120	0xbf56ca83	-0.8390276
121	0xbdd25faa	-0.10272153
122	0x3f7d930e	0.9905251
123	0x3f3e8ea0	0.7443638
124	0xbf1bb6e1	-0.60825926
125	0xbfbac651	-1.4591771
126	0x3f6cbabc	0.92472434
127	0x3f89360a	1.0719616
128	0xbf0df55a	-0.554525
129	0x3f3f9773	0.7484047
130	0x3f3d6172	0.73976815
131	0xc0068a3c	-2.1021872
132	0xbdc24185	-0.09485153
133	0x3f05e7d6	0.5230688
134	0x3f5c2a80	0.8600235
135	0xbeac6ac8	-0.33675218
136	0xbeb79fea	-0.35864192
137	0xbfe6cbee	-1.8030984
138	0xbf331629	-0.6995569
139	0xbf828ea8	-1.0199785
140	0xc051c081	-3.2773745
141	0x3ec4aa3a	0.38411123
142	0x3ed5fbb4	0.41793597
143	0x3f960b65	1.1722227
144	0xbf66bacd	-0.90128785
145	0xbeae99b6	-0.34101647
146	0xbff61c38	-1.9227362
147	0xc05d2008	-3.45508
148	0x3f005075	0.5012277
149	0xc0342bee	-2.8151813
150	0x400f728f	2.241367
151	0x3e415c49	0.1888286
152	0x3ef4dc0c	0.47824132
153	0x3e3e5c9a	0.18590012
154	0xbebe9707	-0.372246
155	0xbe7cd4c4	-0.24690539
156	0x3eee6dc2	0.46568114
157	0x3f104efb	0.56370515
158	0xbf7b061f	-0.98056215
159	0xbea53092	-0.3226362
160	0xbf0c3fe6	-0.54785
161	0xbd934871	-0.071915515
162	0x3e4ac06e	0.19799969
163	0x407438e6	3.8159728
164	0xbeb653fc	-0.3561095
165	0x3ee7f719	0.45305708
166	0xbf2a3211	-0.66482645
167	0x3d2dac00	0.04240036
168	0x3eb173d3	0.3465868
169	0xc003ad65	-2.0574582
170	0x3fc7aaf6	1.5599048
171	0xbff38066	-1.9023559
172	0x3fbeef91	1.491686
173	0x3f7c48c8	0.98548555
174	0x3d43f7be	0.047843687
175	0xbf08cb84	-0.5343554
176	0x402ed3a7	2.7316682
177	0xbfc539df	-1.5408286
178	0xbfbf8f80	-1.4965668
179	0x3f87915d	1.0591236
180	0x3fb96a6c	1.4485602
181	0x3ee04dc8	0.43809342
182	0x3fee5e74	1.8622575
183	0xc00ee7ee	-2.2329059
184	0x408fbf62	4.492112
185	0xc019dc8a	-2.4040856
186	0xbfe650ff	-1.7993468
187	0xbf6c629a	-0.92337954
188	0x400360e1	2.052788
189	0x3f8beec1	1.0932237
190	0x3fe9e44a	1.8272793
191	0xc002f8ea	-2.0464425
192	0x40309dbb	2.759627
193	0x4048059c	3.1253424
194	0xbf5c66dc	-0.8609445
195	0xbe4328a0	-0.19058466
196	0xc048f3d4	-3.139882
197	0x3fdd2727	1.7277573
198	0xbed2b0bf	-0.41150472
199	0x3f51e325	0.8198722
200	0xbf8961ab	-1.0732931
201	0x3f73a781	0.95177466
202	0x3edc0bdd	0.429778
203	0x3f65df50	0.8979387
204	0xbf1672a2	-0.58768666
205	0x3f9c6e3d	1.2221142
206	0x3f635ab8	0.888103
207	0xbe9a286f	-0.30108973
208	0x3ecd94b6	0.4015252
209	0x3e350f10	0.17681527
210	0x3e6d5379	0.23176374
211	0xbf92eafe	-1.1477964
212	0xbf6e21b7	-0.93020195
213	0x3fd5515f	1.6665457
214	0x3f3d9176	0.7405008
215	0x404a0fdc	3.157218
216	0x3de6843e	0.11255692
217	0xc00122f1	-2.0177577
218	0xbd4b39e9	-0.049615774
219	0xbfa066b4	-1.2531343
220	0x3f8c53b5	1.0963045
221	0xbd9de3d7	-0.077094726
222	0xbf581427	-0.8440575
223	0xbf109976	-0.5648416
224	0x3edac0f8	0.42725348
225	0x40267324	2.6007776
226	0x3f59e546	0.8511547
227	0xbfacf849	-1.3513271
228	0x3dcbc11c	0.09948942
229	0x3e891589	0.26774243
230	0xbfee616e	-1.8623483
231	0x3eac25b7	0.33622524
232	0xbf9f9ac5	-1.2469107
233	0xc03e55f6	-2.9739966
234	0xc0904acc	-4.5091305
235	0x3fb9bce1	1.4510766
236	0xbeab942c	-0.33511484
237	0x402faaa5	2.7447903
238	0x400615ee	2.0950885
239	0xbf1ce820	-0.61291695
240	0x3fd416fc	1.6569514
241	0xbf8c336b	-1.0953192
242	0xbf050099	-0.51954037
243	0x3fbdd567	1.483075
244	0x3f5f5789	0.87242943
245	0x3ecea29b	0.40358433
246	0xbef88676	-0.48540086
247	0xbebf20f3	-0.37329826
248	0xbfba43a2	-1.455189
249	0xc00676ba	-2.1009965
250	0xc09af7be	-4.842742
251	0xc057d41e	-3.3723216
252	0x3f48017e	0.78127277
253	0xc03ac720	-2.9184036
254	0x3fea69fd	1.8313595
255	0x3fb3626b	1.401441

encoder.0.0.bias f4 [64]
0	0x3fe7b8e6	1.8103302
1	0x403db540	2.9641876
2	0x3f6b6aa5	0.919596
3	0xbfb224bd	-1.3917462
4	0xbffdec4b	-1.9837736
5	0xc0063859	-2.0971892
6	0xc009a884	-2.1509104
7	0x40188d47	2.383623
8	0x3ff46a6f	1.9094981
9	0x4002e5af	2.0452688
10	0x3f90a23e	1.1299512
11	0x3ea654ef	0.32486674
12	0xbf80808f	-1.0039233
13	0x4039b8d2	2.9019055
14	0xbf7e49e8	-0.9933152
15	0x3f99607b	1.1982569
16	0x40528895	3.2895863
17	0x3faaada6	1.3334243
18	0xc0a94daa	-5.2907305
19	0xbf9758b6	-1.1823947
20	0x4095042d	4.6567597
21	0x3f730b9f	0.9493961
22	0xc086d628	-4.213642
23	0xc0369865	-2.8530514
24	0x3fc51893	1.5398124
25	0xbf9c25af	-1.2199
26	0x3fa46f22	1.2846415
27	0x404eb9d0	3.230091
28	0x400352d7	2.0519311
29	0x3d87af77	0.06625264
30	0xc0028949	-2.0396292
31	0xc08c55da	-4.38548
32	0x402bb1cd	2.682727
33	0x4003c779	2.0590498
34	0x402c3706	2.6908584
35	0xbfd2a5bf	-1.6456832
36	0xc0194889	-2.3950522
37	0x3f470c09	0.7775274
38	0xbfffab28	-1.9974108
39	0x3f98e7d8	1.1945753
40	0xbfcaebc0	-1.5853195
41	0x40018a98	2.024084
42	0x400316be	2.048263
43	0x3f4989d9	0.78725964
44	0x3f06fa96	0.52726114
45	0xbfa29a92	-1.2703421
46	0xc022c279	-2.5431197
47	0x4019ec05	2.4050305
48	0x3f1d90d4	0.61549115
49	0x40c0b964	6.0226307
50	0x403c56c9	2.942797
51	0x3f9e1b25	1.2352034
52	0xbf8d30fb	-1.1030573
53	0xbf07aa5b	-0.52994317
54	0xbf18b7bd	-0.5965536
55	0xbd951657	-0.072796516
56	0xbf87e831	-1.0617734
57	0x3ff29ecc	1.8954711
58	0xbdc074b5	-0.0939726
59	0xbfde264c	-1.7355437
60	0x40114212	2.2696576
61	0xc033bbd4	-2.808339
62	0xbfd3ddd0	-1.6552067
63	0x401a3ea6	2.4100738

encoder.1.0.weight f4 [16, 64]
0	0x3f90d999	1.1316406
1	0xc112a2ab	-9.164714
2	0x409a2375	4.8168283
3	0x3f9f826d	1.2461678
4	0x3f3b41db	0.7314736
5	0x3e7cb5c6	0.24678716
6	0xc0806962	-4.012864
7	0x3fa1a210	1.2627583
8	0x3f2f9e46	0.6860088
9	0x3f4ed640	0.8079567
10	0x3ff3e4e2	1.9054224
11	0x407a91bd	3.9151452
12	0xbd853d20	-0.06505799
13	0x3e701193	0.23444204
14	0x405e1e51	3.4706004
15	0xbf574eb5	-0.8410447
16	0x3ecd5344	0.4010259
17	0x40954a0d	4.6652894
18	0xc08af3db	-4.3422675
19	0x40156251	2.3341258
20	0x3f5e8152	0.8691608
21	0xbf157a63	-0.5838987
22	0xc03c9263	-2.9464347
23	0xbfcfc6ef	-1.6232585
24	0x4013873c	2.305129
25	0xc036c187	-2.855562
26	0x3dfb9fd0	0.12286341
27	0xc085d4c0	-4.1822205
28	0x3e001beb	0.1251065
29	0xc0a96d52	-5.294595
30	0xbd29dcf3	-0.04147048
31	0xbec73078	-0.38904166
32	0x3efb0f54	0.49035132
33	0x3f1d189d	0.6136568
34	0xbf998d8e	-1.1996324
35	0x3ff7312c	1.9311881
36	0xc0838211	-4.1096272
37	0x3f17979c	0.5921571
38	0xbfc4b877	-1.5368794
39	0xbeddf571	-0.4335132
40	0x3f9e6e67	1.2377442
41	0xbd039b1b	-0.032130342
42	0x3ec17090	0.3778119
43	0xbe99a04d	-0.30005112
44	0x402107cb	2.5161006
45	0x3d020496	0.031742655
46	0xbfc70cbe	-1.5550764
47	0x3f0b741f	0.5447406
48	0x3fd287bd	1.6447674
49	0xbe077cc2	-0.13231185
50	0xc0a7d2bd	-5.244475
51	0x3eb6d01e	0.35705656
52	0x3fe0c86e	1.7561166
53	0xbd7cfa6c	-0.06176226
54	0xc0bbe7ed	-5.8720613
55	0xc0722130	-3.7832756
56	0xc088e4bf	-4.277923
57	0x3f3b0f89	0.7307058
58	0x409cf77f	4.905212
59	0xc0ba439f	-5.8207545
60	0xbe6e44f5	-0.23268493
61	0xbc580e24	-0.013186965
62	0xc0823927	-4.0694766
63	0x3fce8ecc	1.6137328
64	0xbebcb431	-0.36856225
65	0x3d47fdbe	0.04882597
66	0xbee4ef85	-0.4471399
67	0xbf335ffa	-0.70068324
68	0x3e7e0ac9	0.24808802
69	0x3ef998de	0.4874944
70	0xbeda7cef	-0.42673442
71	0xbe87365f	-0.2640867
72	0xbf4ffe49	-0.81247383
73	0xbea95750	-0.33074427
74	0xbe6d3ce0	-0.23167753
75	0xbe397d5a	-0.18114224
76	0xbedd282a	-0.43194705
77	0xbdb8caad	-0.09023032
78	0x3e268e57	0.16265236
79	0x3e52216c	0.20520562
80	0xbf218c5b	-0.6310479
81	0xbeb3ee03	-0.35142526
82	0x3e1af46d	0.15132304
83	0x3f39f314	0.7263653
84	0xbd003acd	-0.031306077
85	0xbe963b7b	-0.29342255
86	0x3e863e6e	0.26219505
87	0xbe16cd76	-0.14726815
88	0xbe928078	-0.2861364
89	0xbea7ec08	-0.32797265
90	0x3ed07132	0.4071136
91	0xbeb87a6a	-0.36030895
92	0xbe292ade	-0.16520259
93	0xbdd61182	-0.10452558
94	0x3f022835	0.508426
95	0x3e7269b9	0.23673142
96	0xbead914a	-0.3389991
97	0xbe807727	-0.25090906
98	0xbecb1b09	-0.39669064
99	0x3ecd5f2a	0.40111667
100	0x3e814255	0.2524592
101	0xbf27157e	-0.6526717
102	0xbd81c67e	-0.063366875
103	0xbedef724	-0.43547928
104	0xbd45a788	-0.048255473
105	0x3e99b201	0.3001862
106	0xbe26e429	-0.16297974
107	0xbe5c7b09	-0.21531309
108	0xbd8908c2	-0.066911235
109	0xbe49b2fc	-0.19697183
110	0xbd474e1a	-0.048658468
111	0xbe9c3ff7	-0.3051755
112	0xbf4a25cd	-0.7896393
113	0xbeba4a6c	-0.36384904
114	0xbe281bad	-0.16416807
115	0x3ddeb4ac	0.10874304
116	0xbedf3e8d	-0.4360241
117	0xbd6cdf73	-0.057830285
118	0x3e848f6d	0.25890675
119	0x3f28acc1	0.658886
120	0x3d668219	0.056276415
121	0xbf33a767	-0.7017731
122	0xbedb831c	-0.42873466
123	0xbdf0f178	-0.117648065
124	0xbe03bd3e	-0.12865159
125	0x3ee6cbca	0.45077354
126	0xbcca0acb	-0.02466335
127	0x3e060223	0.13086753
128	0xbfb5c930	-1.4202023
129	0xbf0aff8a	-0.5429617
130	0x3f9e07ca	1.2346127
131	0x3fb388bc	1.4026103
132	0x3e9230d4	0.28552878
133	0xbf0820e1	-0.5317517
134	0x3ebdab28	0.37044644
135	0x3eaa3f5b	0.3325146
136	0x3f1e5f8f	0.6186456
137	0xbe6fe2bb	-0.23426335
138	0x3f31a0ee	0.69386184
139	0x3f1c4441	0.6104165
140	0x3ee5b6ee	0.44866127
141	0x3eb2b44a	0.34903175
142	0xbe6869e9	-0.22696652
143	0x3e9b7df4	0.30369532
144	0x3f401e09	0.7504583
145	0x3c3d0c48	0.011538573
146	0x3d0a779f	0.033805486
147	0x3e74a1e3	0.2388988
148	0x3de38d01	0.11110879
149	0xbdcb6264	-0.09930876
150	0xbf2aae06	-0.6667179
151	0xbe3fa6c7	-0.18715964
152	0xbef7ec40	-0.48422432
153	0x3c84d9b2	0.016217086
154	0x3f054668	0.52060556
155	0xbd8548e0	-0.065080404
156	0xbf3ef462	-0.7459165
157	0x401a1bbc	2.4079428
158	0xbf48e516	-0.7847456
159	0xbef548b5	-0.47907034
160	0x3f2c573b	0.67320603
161	0x3f96f866	1.1794555
162	0xbef08347	-0.46975157
163	0x3e996773	0.29961738
164	0xbf81ac87	-1.0130776
165	0x3e72c56c	0.23708123
166	0xc0095902	-2.1460576
167	0x3edb0002	0.42773443
168	0xc09b1ec8	-4.8475075
169	0x3f039e73	0.5141365
170	0x3ebdd1bf	0.37074086
171	0x3f3af72d	0.7303341
172	0x3db04ade	0.0860803
173	0xbf53ca05	-0.8273013
174	0xc006865b	-2.1019504
175	0xbdbe8d7f	-0.09304332
176	0xc0029423	-2.0402915
177	0x3e003833	0.12521438
178	0x3d6cbb1d	0.057795633
179	0xbdea0b0d	-0.11427889
180	0x3f168bfe	0.5880736
181	0xbeddd7b2	-0.43328625
182	0x3dc92b35	0.09822694
183	0xbf9d9fc2	-1.2314379
184	0xbea8bb1f	-0.32955262
185	0x3f389208	0.72097826
186	0xc094d02b	-4.650411
187	0xbe2b3b75	-0.167219
188	0xbe323199	-0.17401733
189	0xbf0c0e52	-0.5470935
190	0x403c7691	2.9447367
191	0xbeaa15e4	-0.33219826
192	0x3ed64567	0.41849825
193	0x3e2d527c	0.16925997
194	0x3f0d52e7	0.55204624
195	0x3f4fcf27	0.81175464
196	0xbcbaa7d3	-0.022785103
197	0x3ab05cba	0.0013455369
198	0x3e8ff181	0.2811394
199	0xbe3783bd	-0.17921348
200	0xbd19d91b	-0.037560564
201	0x3f23523d	0.6379736
202	0x3b3df2b4	0.0028983774
203	0x3ee181f3	0.44044456
204	0x3e975e00	0.29563904
205	0x3ed4e614	0.41581786
206	0xbef02f58	-0.4691112
207	0x3e79646d	0.24354716
208	0x3ebe9c29	0.37228516
209	0xbe84c641	-0.25932506
210	0x3e80a56d	0.2512621
211	0xbf4fa37b	-0.81108826
212	0x3e398ced	0.18120165
213	0xbe06ee29	-0.13176788
214	0xbcd1ee5b	-0.025626352
215	0x3e8d5766	0.27605742
216	0xbdc59ead	-0.09649406
217	0x3e446cf7	0.19182192
218	0xbe99fa14	-0.30073607
219	0x3e499a91	0.19687869
220	0x3d1aad9e	0.03776323
221	0xbf578421	-0.8418599
222	0x3d3ef9e1	0.04662502
223	0xbe92d40a	-0.28677398
224	0x3ec5da97	0.38643333
225	0x3e994a83	0.2993966
226	0x3e0ff5ad	0.14058562
227	0xbf5bbc3e	-0.8583411
228	0xbe28eb95	-0.16496117
229	0xbee25b20	-0.44210148
230	0xbe9fedba	-0.31236058
231	0x3e7be08a	0.24597374
232	0x3fa91e4e	1.3212373
233	0x3ee28d9f	0.44248673
234	0x3ec65f23	0.3874446
235	0xbe3134ac	-0.17305249
236	0x3d9689f4	0.07350531
237	0x3e0cbeb2	0.1374462
238	0x3f29f8df	0.6639537
239	0x3db9ebfc	0.090782136
240	0x40047273	2.0694854
241	0x3e71fe72	0.2363222
242	0xb88a2dd4	-6.588889e-05
243	0x3e8a06f0	0.26958418
244	0x3f3ea505	0.7447055
245	0x3a969e20	0.0011491217
246	0x3e8259cb	0.25459132
247	0xbf011a48	-0.50430727
248	0x3da6e10b	0.08148392
249	0x3f142322	0.5786611
250	0x3fca21cf	1.5791568
251	0x3ef7242a	0.48269778
252	0x3efd1e46	0.4943716
253	0xbee2c338	-0.44289565
254	0xbf84d2c7	-1.0376824
255	0xbeb94f08	-0.3619311

encoder.1.0.bias f4 [16]
0	0x3f7e1e82	0.992653
1	0xbeaa4efc	-0.33263385
2	0x3ebf4924	0.3736049
3	0x3f08d158	0.53444433
4	0x3d9425fe	0.07233809
5	0x3ef9df63	0.48803243
6	0xbf91c424	-1.1387982
7	0x3dc1e6b3	0.094678305
8	0x3e818509	0.2529681
9	0xbf114541	-0.567463
10	0x3f3e4775	0.74327785
11	0x3f2fb8cc	0.6864135
12	0xbe424303	-0.18970875
13	0x3f009c97	0.5023894
14	0xbf115c1b	-0.56781167
15	0x3f8d15d9	1.1022292

encoder.2.0.weight f4 [32, 16]
0	0x404750d6	3.1143088
1	0xbf9d83fc	-1.2305903
2	0x3f58654f	0.84529585
3	0x3f9f2d92	1.2435782
4	0x3f34b00c	0.70581126
5	0xbe87cc3b	-0.26523003
6	0xc0329da5	-2.7908719
7	0x3f04cf26	0.51878583
8	0x3f9dcfe5	1.2329069
9	0xbfad0819	-1.3518096
10	0x3fb668e6	1.4250762
11	0x3f652aec	0.8951862
12	0xbf890f7e	-1.0707853
13	0x40642c88	3.565218
14	0xbf09cf48	-0.5383191
15	0x3fb60690	1.4220753
16	0x3f10dd3b	0.5658757
17	0xbe6a923f	-0.22907351
18	0x3dd37ebc	0.10326907
19	0x3e465fb1	0.19372441
20	0x3eb59fc9	0.3547347
21	0xbd88a881	-0.066727646
22	0xbeb35383	-0.35024652
23	0x3d97fbdc	0.07421085
24	0x3e479101	0.19488908
25	0xbc66c7ee	-0.014085753
26	0x3e2ab8d5	0.1667207
27	0x3eb0eb5d	0.34554568
28	0xbe865507	-0.26236746
29	0x3f74d5d7	0.95638794
30	0xbdb7a646	-0.08967261
31	0x3e5ec8c9	0.21756281
32	0xbf460eb0	-0.7736616
33	0x3f378c35	0.71698314
34	0xbe8664bf	-0.26248738
35	0xbe8fccf4	-0.28086054
36	0xbe58a46c	-0.21156472
37	0x3d81eb50	0.063437104
38	0x3f2e4610	0.68075657
39	0xbdf71730	-0.120649695
40	0x3d5519ab	0.052026432
41	0x3f5fd720	0.8743763
42	0xbe7ebdf3	-0.24877147
43	0xbe9a8aa3	-0.30183896
44	0xbd159c24	-0.03652586
45	0xbf319f53	-0.69383734
46	0x3c79abb7	0.015238694
47	0xbec3faca	-0.38277274
48	0x3d811393	0.063025616
49	0x3e8b6583	0.27225885
50	0x3ee0bc3a	0.43893605
51	0x3e286fbe	0.16448876
52	0xbe9f56bc	-0.3112086
53	0x3ce5113e	0.027962323
54	0xbd279255	-0.040911037
55	0x3e06bb02	0.13157275
56	0x3d8a4ac0	0.06752539
57	0xbe73679f	-0.23769997
58	0xbdd316a2	-0.10307051
59	0xbbb76c63	-0.0055976375
60	0x3d08ccbd	0.03339838
61	0x3d1e4a30	0.03864497
62	0xbddf9a11	-0.10918058
63	0xbc861066	-0.016365241
64	0x3dcc0778	0.09962362
65	0xbed2fbd9	-0.4120777
66	0x3c81ca4a	0.01584353
67	0xbc8ffa58	-0.017575428
68	0x37cdc750	2.4530716e-05
69	0x3db3551e	0.08756469
70	0xbd99f36d	-0.07517133
71	0x3d81e5ae	0.06342636
72	0x3e88831e	0.26662534
73	0xbf2a94d4	-0.66633344
74	0x3db30714	0.087415844
75	0xbe8501c8	-0.2597792
76	0x3ddbb5dc	0.10728046
77	0x3e3f24fd	0.18666454
78	0x3ed624f1	0.4182506
79	0x3d90623d	0.070499875
80	0xbbdfc4d5	-0.006828884
81	0xbe2c1898	-0.16806257
82	0xbd6a899e	-0.05726015
83	0x3d2db143	0.042405378
84	0xbb96a68a	-0.0045974897
85	0x3bd755de	0.0065715155
86	0xbd3a1339	-0.04542849
87	0xbe2e9b36	-0.17051396
88	0xbe93d4f9	-0.28873423
89	0xbeb8a88a	-0.36066085
90	0xbd7e2e5d	-0.062055934
91	0x3e0220ba	0.12707797
92	0xbcc1794b	-0.023617407
93	0x3d92a36d	0.07160077
94	0x3cd198c3	0.025585538
95	0x3e00be85	0.12572677
96	0xbe40252b	-0.18764178
97	0xbd5ed5af	-0.054403003
98	0xbe787eb9	-0.24267091
99	0x3e112240	0.14173222
100	0x3e009fc9	0.12560953
101	0xbd9303f5	-0.07178489
102	0xbcc05515	-0.02347807
103	0xbebd0c70	-0.36923552
104	0xbe142596	-0.14467463
105	0xbe8d5a09	-0.27607754
106	0x3d2bf93b	0.04198573
107	0x3d8f7012	0.070037976
108	0x3f043a4b	0.5165145
109	0xbdc0fc67	-0.09423142
110	0xbe34f633	-0.17672043
111	0xbe377949	-0.1791736
112	0x3e772ee7	0.24138986
113	0x3da13f56	0.078734085
114	0xbc40ce42	-0.011767926
115	0x3e763764	0.24044567
116	0x3bac1c38	0.0052523874
117	0xbe26e589	-0.16298498
118	0xbeb94edf	-0.36192986
119	0x3e830e7e	0.25596994
120	0x3db722f9	0.089422174
121	0xbde8e2be	-0.11371373
122	0x3e423953	0.1896718
123	0xbdb10ac9	-0.08644635
124	0xbabad79e	-0.0014254933
125	0x3f0916c6	0.53550375
126	0xbe9a1eaa	-0.3010152
127	0x3e8b9934	0.27265322
128	0x3dc94b76	0.09828846
129	0xbe89caa3	-0.26912412
130	0x3bf4775f	0.007460519
131	0x3e0bf368	0.13667071
132	0x3eaaf49a	0.3338974
133	0x3e09f9e1	0.13474227
134	0xbc91a3a1	-0.01777822
135	0x3e4f76aa	0.2026011
136	0xbd94da57	-0.072682075
137	0xbd86475d	-0.0655658
138	0x3dba7365	0.09104041
139	0x3de9b3b5	0.114112295
140	0x3ea324e6	0.3186409
141	0x3d038d92	0.032117434
142	0x3d3b58c5	0.045738954
143	0xbe082385	-0.132948
144	0x3d7667bb	0.06015752
145	0x3cb06f4c	0.021537445
146	0x3e8bc39b	0.27297673
147	0x3d08c399	0.03338966
148	0x3d80f58f	0.062968366
149	0x3a1b162d	0.0005916085
150	0xbd46219b	-0.048371892
151	0x3e86fd49	0.26365116
152	0x3e278e78	0.16362941
153	0x3e03cce0	0.12871122
154	0xbe5aae3b	-0.21355526
155	0xbd88cc4e	-0.06679593
156	0xbe94eb9d	-0.2908601
157	0x3e797c06	0.24363717
158	0xbe4b5ace	-0.19858858
159	0x3d90d8c1	0.070725925
160	0x3d77726d	0.06041186
161	0x3eee4113	0.46534023
162	0xbe1b138b	-0.15144174
163	0xbdc39f00	-0.09551811
164	0x3d05bad8	0.03264889
165	0x3ddcf658	0.10789174
166	0x3e0bcd31	0.13652493
167	0xbdcf8f6b	-0.10134777
168	0x3e8d4ddb	0.27598462
169	0x3dd7aa76	0.1053056
170	0xbe18f574	-0.14937383
171	0xbe7a92de	-0.24470088
172	0xbe80bb4e	-0.25142902
173	0xbdd7d6c6	-0.10539012
174	0x3d1ecb55	0.03876813
175	0x3d130711	0.03589541
176	0x3d2c63f4	0.04208751
177	0xbeb1cbbb	-0.34725747
178	0x3d0a4180	0.033753872
179	0x3cb9593c	0.022625558
180	0x3e5f5faa	0.21813837
181	0x3e0d77d4	0.13815242
182	0xbd0af488	-0.03392461
183	0xbc429167	-0.011875487
184	0x3e739c35	0.23790057
185	0xbeda92a1	-0.42689994
186	0x3cce860c	0.025210403
187	0xbe1d867f	-0.15383337
188	0xbe7ae47e	-0.24501225
189	0x3d2e5419	0.04256067
190	0x3e8c45ee	0.27397102
191	0xbd810ed6	-0.06301658
192	0xc067e98c	-3.6236296
193	0x3edb4705	0.4282762
194	0xbf5c34c3	-0.8601801
195	0xbf93e05c	-1.1552844
196	0xbf17a4a2	-0.59235585
197	0x3e78f9d1	0.24314047
198	0x4012c90b	2.2935207
199	0xbf0c646c	-0.5484073
200	0xbf5456e6	-0.82945096
201	0x3f65c86c	0.89758945
202	0xbfd82ea1	-1.688923
203	0xbf890d7c	-1.070724
204	0x3f527e39	0.8222385
205	0xc09a09a2	-4.813676
206	0xbe6bc541	-0.23024465
207	0xbfbdfeab	-1.4843343
208	0x3f214249	0.6299177
209	0x3d00343f	0.031299826
210	0x3eb6170c	0.35564458
211	0x3d1a2a0c	0.037637755
212	0xbdc533ba	-0.09629007
213	0xbe0f5f81	-0.14001276
214	0xbf0aad6a	-0.5417086
215	0x3ead1827	0.3380749
216	0xbc9341cf	-0.017975716
217	0x3eb1e736	0.34746712
218	0x3e5f1004	0.21783453
219	0x3e94a17d	0.29029456
220	0xbef98b17	-0.4873893
221	0x3f3ffc12	0.74994004
222	0x3d8639f9	0.06554026
223	0x3deed100	0.11660957
224	0xbdc92788	-0.09821993
225	0x3e730d05	0.23735435
226	0xbb150ce1	-0.0022743272
227	0xbe858350	-0.26076746
228	0xbd9baf65	-0.07601813
229	0xbdc64b4e	-0.09682332
230	0x3d226f01	0.039656643
231	0xbdb83a66	-0.089955136
232	0xbe400a54	-0.1875394
233	0x3eae0dce	0.33994907
234	0xbe29f9f5	-0.16599257
235	0x3e04fee2	0.12987855
236	0x3edb4da4	0.42832673
237	0xbe0b98a7	-0.13632451
238	0xbdf504a5	-0.119637765
239	0x3dc0ccf3	0.09414091
240	0xbf448953	-0.7677204
241	0x3f216c24	0.63055634
242	0xbf0d7bb5	-0.55266887
243	0xbf24765a	-0.6424309
244	0xbcb45cc4	-0.02201689
245	0x3d94b8b1	0.072617896
246	0x3f6ded1c	0.92939925
247	0xbd001ecb	-0.031279366
248	0xbf083dae	-0.53219116
249	0x3f0a227d	0.53958875
250	0xbe5e584b	-0.21713369
251	0xbe80c412	-0.2514959
252	0x3e993df8	0.2993009
253	0xbfba3576	-1.4547565
254	0x3e708cd4	0.23491222
255	0xbebc9cd7	-0.3683841

encoder.2.0.bias f4 [32]
0	0x3f922be8	1.1419649
1	0x3ec16482	0.37771994
2	0xbf0a7065	-0.5407775
3	0x3dab683e	0.08369492
4	0x3e559c39	0.20860375
5	0x3e27fe4f	0.16405605
6	0xbd35cae0	-0.04438293
7	0xbcb53990	-0.022122175
8	0x3cf0e28c	0.029404901
9	0xbdd125be	-0.10212277
10	0xbe177cf0	-0.14793754
11	0x3e204cb9	0.15654267
12	0xbfb10172	-1.3828566
13	0x3e37e03c	0.17956632
14	0xbec1068f	-0.37700316
15	0xbebfdbfe	-0.37472528
16	0x3f0d3be4	0.5516951
17	0x3d8e74a5	0.06955842
18	0x3dd463b9	0.10370583
19	0x3d0fcaf6	0.035105668
20	0x3e86bc1e	0.26315397
21	0xbe3e3fae	-0.1857898
22	0xbe836131	-0.2566009
23	0x3d969f16	0.07354562
24	0xbdcd67cc	-0.10029563
25	0xbdff55bf	-0.12467527
26	0xbeb4a804	-0.35284436
27	0xbdf15331	-0.117834456
28	0xbdf19423	-0.11795833
29	0x3efd8666	0.495166
30	0x3e54dccf	0.20787357
31	0xbcdb45b2	-0.026766632

encoder.3.weight f4 [8, 32]
0	0xbefaaa2a	-0.4895795
1	0xbe9a8a86	-0.3018381
2	0x3ea32347	0.31862852
3	0xbdda3ae5	-0.106557645
4	0xbe97196e	-0.2951159
5	0xbddc40c0	-0.107545376
6	0x3e036f05	0.1283532
7	0xbe95c148	-0.29249024
8	0xbe804849	-0.2505515
9	0xbcf89d73	-0.030348515
10	0x3e824732	0.25444943
11	0xbeac5dc7	-0.33665296
12	0x3eab23d0	0.3342576
13	0xbe4d0737	-0.20022283
14	0x3ec28346	0.3799078
15	0x3eb9828e	0.36232418
16	0x3e5d0233	0.2158287
17	0x3ee59700	0.44841766
18	0xbd9c342f	-0.07627141
19	0x3e3b018a	0.18262306
20	0xbdf499ad	-0.11943374
21	0xbe886b54	-0.26644385
22	0x3de1276c	0.10993847
23	0xbe90f9f1	-0.2831569
24	0xbe3c45ae	-0.18385956
25	0x3dfa902b	0.12234529
26	0x3e84eef5	0.2596356
27	0xbdcb0005	-0.09912113
28	0x3d4517a3	0.048118245
29	0xbed8add7	-0.4232013
30	0xbc1b674d	-0.009485078
31	0xbeb1815e	-0.34669012
32	0xbee3bb89	-0.44479015
33	0xbeab980d	-0.33514443
34	0x3e021aa4	0.12705475
35	0xbe998dba	-0.2999094
36	0xbd8266db	-0.063672744
37	0xbd8edefa	-0.06976123
38	0x3e7839b8	0.24240768
39	0xbe5f6dd5	-0.21819241
40	0xbd8b5f2f	-0.06805264
41	0xbe0fb3d2	-0.1403344
42	0x3de2b708	0.11070067
43	0x3d2a28a2	0.041542657
44	0x3e909e2f	0.28245685
45	0xbe97efd3	-0.2967516
46	0x3d2700b8	0.04077217
47	0x3e41d89e	0.18930289
48	0xbdbf2b3a	-0.09334417
49	0xbe874a0d	-0.26423684
50	0xbe41bf8f	-0.1892073
51	0x3db779d5	0.089587845
52	0xbe3d5378	-0.18488872
53	0xbd7b8755	-0.06140836
54	0x3e278faa	0.16363397
55	0xbe0e60de	-0.1390414
56	0xbe277f16	-0.16357073
57	0x3d4972f7	0.049181905
58	0x3e31028c	0.17286128
59	0xbe11cb94	-0.14237815
60	0xbed4dbb9	-0.41573885
61	0xbe236f46	-0.15960416
62	0xbdd05e0b	-0.10174187
63	0xbe58a776	-0.21157631
64	0x3e2a3672	0.16622332
65	0x3e7265ee	0.23671696
66	0xbe33a7c0	-0.1754446
67	0x3ebfadc4	0.3743726
68	0xbddc41a9	-0.10754711
69	0x3d3e3901	0.046441082
70	0x3d7131d6	0.058885418
71	0x3e0aa695	0.13540109
72	0xbdc0d2a4	-0.094151765
73	0x3da1dc05	0.079032935
74	0xbd501365	-0.050799746
75	0xbe803245	-0.25038353
76	0xbdfbd9ce	-0.12297402
77	0x3d94aaf8	0.07259172
78	0x3e4bfb99	0.19920196
79	0xbd88d8f8	-0.066820085
80	0x3e3bf07c	0.18353456
81	0x3e9e7930	0.30951834
82	0x3e18d7fa	0.14926139
83	0xbd4cdc35	-0.050014693
84	0x3e1824ae	0.14857742
85	0xbe1b59cc	-0.15170974
86	0x3d486d27	0.04893222
87	0xbd03bf9b	-0.03216515
88	0x3d72948a	0.05922369
89	0x3e234b8f	0.15946792
90	0xbe233915	-0.15939744
91	0xbd6202e4	-0.055178538
92	0x3ef2a96f	0.47394893
93	0xbd239d4e	-0.03994494
94	0x3dde0899	0.108414836
95	0x3cef7d9e	0.029234704
96	0x3eda2555	0.42606607
97	0x3e8f1280	0.27943802
98	0xbe1524e0	-0.14564848
99	0x3e230268	0.15918887
100	0x3e9d262d	0.30693188
101	0x3d347c59	0.0440639
102	0xbd2c1ce4	-0.04201974
103	0x3e0ea4c4	0.1393004
104	0x3d84032c	0.064459175
105	0x3db37582	0.08762647
106	0x3cb7c69d	0.022433573
107	0x3e8f0ff2	0.27941853
108	0xbe845758	-0.25847888
109	0x3d0ad8a9	0.03389803
110	0xbe95cfdf	-0.29260156
111	0xbe5abf8c	-0.21362132
112	0xbe3f45fd	-0.18679042
113	0xbeb2f1de	-0.34950155
114	0x3e09a58a	0.13442054
115	0xbe29a596	-0.16567072
116	0x3dc2125e	0.094761595
117	0x3e0e237a	0.1388072
118	0x3d2fd91b	0.042931657
119	0x3e05c11e	0.1306195
120	0x3e1f5483	0.15559582
121	0xbe423126	-0.18964061
122	0xbe161288	-0.14655507
123	0x3cbc8b7c	0.02301573
124	0xbd93ebcd	-0.0722271
125	0x3ebf0642	0.37309462
126	0x3b3545c5	0.0027659994
127	0x3e76b873	0.240938
128	0xbd23a598	-0.039952844
129	0x3cf9798d	0.030453468
130	0x3e04ffe9	0.12988247
131	0xbbe1243c	-0.0068707746
132	0xbd96ce54	-0.07363573
133	0xbdb0230d	-0.086004354
134	0x3df5ca0d	0.12001429
135	0xbe312599	-0.17299499
136	0x3d189251	0.037248913
137	0xbdc2b954	-0.09508005
138	0xbdd47e92	-0.10375704
139	0x3d595816	0.05306252
140	0x3d34c028	0.044128567
141	0xbdeeac11	-0.11653913
142	0xbcbde959	-0.023182558
143	0x3dd095df	0.10184836
144	0xbd630567	-0.055425074
145	0xbebd1bb3	-0.36935195
146	0x3b00c01d	0.0019645758
147	0x3dec4943	0.11537411
148	0xbd814fe5	-0.06314067
149	0x3dde0317	0.10840433
150	0xbcad44f8	-0.02115105
151	0xbe008eff	-0.12554549
152	0xbe2e6959	-0.17032374
153	0x3d3f81bf	0.046754595
154	0x3d266fe0	0.040634036
155	0x3cc9be31	0.024626823
156	0x3d1caff9	0.038253758
157	0x3cfcc77f	0.030856846
158	0xbd39bb6f	-0.045344766
159	0x3de90f39	0.113798566
160	0x3f5e4dbb	0.8683736
161	0x3f027ad6	0.5096868
162	0xbf216c21	-0.63055617
163	0x3ef0a467	0.4700043
164	0x3d97cb7f	0.07411861
165	0x3e7336e4	0.23751408
166	0xbe9b7df8	-0.30369544
167	0x3e6747c9	0.22585978
168	0xbd680513	-0.056645464
169	0x3efff0eb	0.49988493
170	0xbefefabb	-0.49800667
171	0xbed506f9	-0.41606882
172	0xbf112b54	-0.5670674
173	0x3f2b63dc	0.6694925
174	0x3e85eb09	0.2615588
175	0xbf37dcd4	-0.7182133
176	0x3ed9d7de	0.42547506
177	0x3f9d7dde	1.2304037
178	0x3f003008	0.5007329
179	0xbe98a266	-0.298114
180	0x3eabd4ea	0.33560878
181	0xbdba7c42	-0.091057315
182	0xbe73e39b	-0.23817293
183	0x3ebe01d6	0.37110776
184	0x3eb1a406	0.34695452
185	0xb9bbcf5e	-0.0003582192
186	0xbf1f0d92	-0.6213008
187	0x3ebccf4c	0.36876905
188	0x3f80484d	1.0022064
189	0xbd952b70	-0.07283676
190	0x3e4f2a34	0.20230943
191	0x3e728710	0.23684335
192	0x3e3e2823	0.18569998
193	0x3e845e34	0.2585312
194	0xbe8848d6	-0.2661807
195	0x3e808b46	0.25106257
196	0x3de4d586	0.11173539
197	0x3de70a7c	0.112812966
198	0xbded8c14	-0.115989834
199	0x3dba8f1e	0.09109329
200	0x3d6a1bdc	0.057155475
201	0xbdf18fa8	-0.117949784
202	0xbe01e275	-0.12684043
203	0x3ddd38f6	0.1080188
204	0xbe0c5182	-0.13702968
205	0x3df3ccf7	0.11904328
206	0xbe23cb1c	-0.15995449
207	0xbd5dc598	-0.05414352
208	0xbd55b835	-0.052177627
209	0xbe44150a	-0.19148651
210	0x3cebd099	0.02878599
211	0xbbdf01a9	-0.006805618
212	0x3de0fbd4	0.109855324
213	0x3d9e9e5b	0.07745048
214	0xbc8b5bf2	-0.017011616
215	0x3d3ef086	0.0466161
216	0x3dc1554f	0.094400994
217	0xbd5134bc	-0.051075682
218	0xbd5b74f5	-0.053578336
219	0xbd82e172	-0.063906565
220	0x3e35f76e	0.17770168
221	0x3e8b3c90	0.27194643
222	0x3cec33ee	0.028833356
223	0x3e7f14ee	0.24910328
224	0xbd951b18	-0.07280558
225	0xbddec960	-0.10878253
226	0x3e28fea2	0.16503385
227	0xbdf56a85	-0.119832076
228	0xbdd2708d	-0.102753736
229	0xbcc7f3ad	-0.024408186
230	0xbdaad332	-0.083410636
231	0xbdece919	-0.11567897
232	0xbd69f89c	-0.057121858
233	0x3dcbccfe	0.099512085
234	0x3d266b08	0.040629417
235	0xbd6f0f3a	-0.05836413
236	0x3d6ed49b	0.058308225
237	0xbc1aff60	-0.0094603
238	0x3dc04272	0.093876734
239	0xbbaa99a1	-0.0052063023
240	0x3d295180	0.04133749
241	0x3d5d8009	0.054077182
242	0xbda2ed3d	-0.07955406
243	0x3cc830fc	0.02443742
244	0xbd4258bd	-0.04744791
245	0xbcf7df81	-0.030257942
246	0x3d8dbda3	0.06920936
247	0xbd2dc286	-0.04242184
248	0xbb72c34c	-0.0037042676
249	0x3dd76c18	0.10518664
250	0xbd5eda18	-0.05440721
251	0xbd04f5ce	-0.03246098
252	0x3d4020c1	0.046906237
253	0xbda969c0	-0.08272123
254	0xbad771d6	-0.0016437124
255	0x3c8c35cf	0.017115502

encoder.3.bias f4 [8]
0	0xbdfedbb6	-0.1244425
1	0xbdf656ba	-0.120282605
2	0x3ebd0f83	0.36925897
3	0x3e0061ac	0.12537259
4	0xbe24b727	-0.16085492
5	0x3f03c37d	0.51470166
6	0x3da22fc4	0.07919267
7	0xbea08801	-0.31353763
