models/mnist_decoder.pth (torch_old, 33735 bytes, 15 tensors)

decoder_dense.0.0.weight f4 [64, 8]
0.50913566 0.5133409 0.20803246 -0.22693196 -0.11447014 0.17365685 -0.3263356 -0.10848566
-0.1602866 -0.10324416 0.39076433 -0.15484396 -0.005022206 0.3229897 0.35912585 0.2023062
-0.0622444 -0.24604711 0.16734424 -0.26472247 -0.22185056 -0.39466414 -0.28009745 0.43405756
-0.12720779 0.83197784 0.49041685 0.2216089 -0.4701685 0.48638806 0.32889006 -0.16014728
-0.6721967 -0.33754557 0.31805333 0.015620929 -0.35635558 0.16844483 0.046364248 0.09485457
-0.22447006 0.1674385 -0.046187226 -0.20302899 0.48575637 0.19575153 0.012761379 0.057305023
0.057376985 0.18933132 -0.06335408 0.062884964 0.49811465 0.20220326 0.334794 -0.67302966
0.0757173 -0.53640306 -0.564453 -0.16330846 -0.266319 -0.089457564 -0.45519975 0.5042783
0.077047676 -0.36960062 -0.113675706 -0.20198531 0.18358694 -0.26570946 0.07863867 0.29763523
-0.046894573 -0.45123982 0.5276012 -0.4230212 0.5340422 0.39731115 0.18850948 -0.10359799
-0.23225158 -0.05816354 0.1172099 0.028824512 -0.26432043 -0.65896904 0.35021684 -0.07913335
0.03928951 -1.1155514 -0.4009783 -0.7926096 0.6301525 -0.20738558 -0.43905625 0.49411774
-0.24257788 -0.12082248 0.26260495 -0.064546645 0.14842798 -0.20618191 0.3566681 0.43943378
-0.5079959 0.9055248 0.26414448 0.6980456 -0.70048344 0.46821496 0.3196928 0.003620292
0.1198703 -0.02106367 0.100750715 -0.23002413 0.21448158 -0.0957661 -0.044570696 -0.4308797
-0.41538894 1.1491603 0.24770157 0.66925436 0.04505736 0.052896373 0.61290383 -0.13358042
-0.0027766507 0.045254212 -0.19852859 -0.07497135 -0.08876843 -0.6398527 -0.08170292 -0.32847682
-0.11956993 0.4100917 0.13974372 -0.037656102 -0.32671565 0.15473735 -0.15714344 0.1303634
-0.67253953 0.3171507 0.14554739 -0.07388592 0.0019769655 -0.16607118 0.5997907 -0.092305124
-0.11236474 -0.22427194 -0.57224274 -0.4266954 0.5719424 -0.28251296 0.1516973 -0.052230865
-0.07125882 -0.1689161 0.6164008 -0.100239836 0.15131134 -0.29891908 0.39409626 -0.3093704
-0.28554627 0.69443226 0.067096785 0.107746005 0.36813086 -0.009236053 0.13545372 -0.26717985
-0.19254342 0.006486519 0.37678766 0.08406027 0.541396 0.24434854 0.3985031 -0.35005438
-0.006765131 -0.29521278 0.3769968 -0.42649314 -0.1543834 -0.23146819 0.058200732 0.16402188
-0.12159761 -0.62459576 0.1250521 0.05291765 0.40266952 -0.048467513 0.1741816 -0.22375442
-0.0870639 -0.050802935 0.24522433 0.2917375 -0.056487516 0.16434877 -0.07971668 -0.075671144
0.34386703 0.16604328 0.46414092 0.12056613 0.057674408 -0.06784945 0.112517096 -0.21552175
-0.40139672 0.18624128 -0.07463928 0.0036592071 0.10859199 -0.43504104 0.4903295 -0.7123677
0.1414314 0.7468661 1.0088906 -0.36391896 -0.026410937 -0.8564417 -0.7748762 0.39414403
-0.23495181 -0.30507088 -0.8437934 0.2824915 -0.22588897 0.15012269 0.5333319 -0.19166969
-0.22155923 0.04725531 -0.041846395 -0.05019366 -0.30957162 -0.10827933 -0.057237964 -0.06998471
0.34081605 0.062873565 -0.122352116 -0.13452983 -0.09953166 0.3376593 -0.012606863 0.32751858
00000000: b756 023f 4f6a 033f 7606 553e da60 68be
00000010: 526f eabd 1ad3 313e 7615 a7be bb2d debd
00000020: 2c22 24be ad71 d3bd 4312 c83e 6a8f 1ebe
00000030: 5191 a4bb e85e a53e 58df b73e 5b29 4f3e
00000040: fcf3 7ebd c6f3 7bbe 4a5c 2b3e b489 87be
00000050: cb2c 63be 6b11 cabe ef68 8fbe cb3c de3e
00000060: c242 02be 80fc 543f eb17 fb3e 72ed 623e
00000070: edb9 f0be db07 f93e 4764 a83e a6fd 23be
00000080: 1515 2cbf c6d2 acbe e3d7 a23e edee 7f3c
00000090: 3d74 b6be cd7c 2c3e 70e8 3d3d 1d43 c23d
000000a0: 7bdb 65be 0075 2b3e d12e 3dbd d5e6 4fbe
000000b0: 0fb5 f83e 1773 483e 1a15 513c acb8 6a3d
000000c0: 2104 6b3d 12e0 413e c9bf 81bd d5c9 803d
000000d0: e208 ff3e 5f0e 4f3e 1f6a ab3e ac4b 2cbf
000000e0: ac11 9b3d b651 09bf fe7f 10bf 553a 27be
000000f0: f75a 88be 8735 b7bd f10f e9be 6218 013f
00000100: 2ccb 9d3d 4b3c bdbe cfce e8bd 3dd5 4ebe
00000110: 37fe 3b3e 120b 88be 500d a13d a563 983e
00000120: 8614 40bd e808 e7be df10 073f 3c96 d8be
00000130: fdb6 083f 5e6c cb3e a108 413e 2f2b d4bd
00000140: 5cd3 6dbe e43c 6ebd be0b f03d 6221 ec3c
00000150: 0255 87be 32b2 28bf 9f4f b33e aa10 a2bd
00000160: 0aee 203d 63ca 8ebf 074d cdbe 76e8 4abf
00000170: ad51 213f e35c 54be fbcb e0be 00fd fc3e
00000180: 5666 78be c771 f7bd 2874 863e 0831 84bd
00000190: 81fd 173e 5a21 53be 349d b63e 77fd e03e
000001a0: 050c 02bf 79d0 673f f23d 873e 1eb3 323f
000001b0: e252 33bf dfb9 ef3e c6ae a33e 6c42 6d3b
000001c0: 8f7e f53d b88d acbc 6456 ce3d 728b 6bbe
000001d0: 0fa1 5b3e 0421 c4bd c38f 36bd 449c dcbe
000001e0: dcad d4be af17 933f 7ba5 7d3e 4154 2b3f
000001f0: 118e 383d dea9 583d 44e7 1c3f 4ec9 08be
00000200: 78f8 35bb 7b5c 393d 144b 4bbe 948a 99bd
00000210: 39cc b5bd 63cd 23bf dc53 a7bd 1d2e a8be
00000220: 14e1 f4bd 8af7 d13e fa18 0f3e 493d 1abd
00000230: 4647 a7be 7873 1e3e 36ea 20be fc7d 053e
00000240: 8d2b 2cbf 9461 a23e 600a 153e 8051 97bd
00000250: fa8f 013b 900e 2abe e28b 193f 780a bdbd
00000260: 7c1f e6bd 8ba7 65be 807e 12bf d277 dabe
00000270: d16a 123f 8aa5 90be 8956 1b3e 08f0 55bd
00000280: 25f0 91bd 58f8 2cbe 71cc 1d3f 8b4a cdbd
00000290: 5cf1 1a3e ec0b 99be fcc6 c93e cc65 9ebe
000002a0: 1f33 92be 50c6 313f 0a6a 893d f0a9 dc3d
000002b0: a67b bc3e d052 17bc 61b4 0a3e cccb 88be
000002c0: 1a2a 45be dd8c d43b 50ea c03e ca27 ac3d
000002d0: ee98 0a3f 8136 7a3e 9908 cc3e 543a b3be
000002e0: 08ae ddbb 2126 97be b905 c13e 4f5d dabe
000002f0: af16 1ebe ff05 6dbe e463 6e3d 5af5 273e
00000300: 2b08 f9bd 82e5 1fbf a80d 003e 2ec0 583d
00000310: b32a ce3e df85 46bd a95c 323e e11f 65be
00000320: 8f4e b2bd bd16 50bd 161c 7b3e 9e5e 953e
00000330: 745f 67bd 0b4b 283e 8042 a3bd 79f9 9abd
00000340: 570f b03e 4007 2a3e e1a3 ed3e 60eb f63d
00000350: 003c 6c3d a7f4 8abd 5d6f e63d bcb1 5cbe
00000360: df83 cdbe 09b6 3e3e 7bdc 98bd 4fcf 6f3b
00000370: 7a65 de3d b3bd debe 780c fb3e bb5d 36bf
00000380: 65d3 103e 9e32 3f3f 5423 813f 9653 babe
00000390: c05b d8bc c33f 5bbf 495e 46bf 3fcd c93e
000003a0: 3597 70be 4032 9cbe d802 58bf baa2 903e
000003b0: 704f 67be c3b9 193e 7088 083f 0f45 44be
000003c0: 6ce0 62be c98e 413d 2067 2bbd de97 4dbd
000003d0: 2c80 9ebe 8ec1 ddbd 5b72 6abd 2554 8fbd
000003e0: 717f ae3e dbc3 803d bf93 fabd 30c2 09be
000003f0: 41d7 cbbd aee1 ac3e 048d 4ebc 84b0 a73e

decoder_dense.0.0.bias f4 [64]
-0.26762998 0.22454159 0.060002048 -0.26920834 0.61033785 0.18534271 -0.7662027 0.19056144
0.12742203 0.62898535 0.18968529 -0.08498337 0.5029494 -0.87297076 -0.59212315 0.086468
-0.2198442 0.27900285 0.009163831 -0.55382943 -0.13282521 1.0020119 -0.11879943 0.61205477
-0.3888445 -0.010350561 -0.33742645 -0.2610831 0.218002 -0.7883753 0.23802239 0.38615543
0.5498422 1.1969626 0.31322894 -1.2409571 -0.15324736 -0.30115047 0.21274613 -0.17935328
-1.6134732 -0.5055611 -0.7778354 0.24993177 0.6474708 -0.9086447 -0.33548766 -0.45841873
-0.48619905 0.85536206 -0.15524046 0.18648283 0.4478524 0.87548715 0.65712714 0.26411742
0.68014485 0.21475776 0.25832987 0.38969636 -0.16942269 0.56646615 0.07715043 -0.66999567
00000000: cc06 89be 3bee 653e b5c4 753d add5 89be
00000010: 1a3f 1c3f 7bca 3d3e dc25 44bf 8a22 433e
00000020: ec7a 023e 2f05 213f dc3c 423e c30b aebd
00000030: 4bc1 003f 037b 5fbf 6295 17bf 2316 b13d
00000040: d71e 61be 76d9 8e3e e523 163c c4c7 0dbf
00000050: 5503 08be ed41 803f 1e4d f3bd 9faf 1c3f
00000060: a016 c7be 6695 29bc 29c3 acbe afac 85be
00000070: eb3b 5f3e f7d2 49bf 24bc 733e 2ab6 c53e
00000080: 75c2 0c3f 1236 993f 8b5f a03e afd7 9ebf
00000090: e0ec 1cbe 6530 9abe 1fda 593e 63a8 37be
000000a0: 4a86 cebf 746c 01bf 3920 47bf 1dee 7f3e
000000b0: a5c0 253f f09c 68bf 0ac5 abbe dcb5 eabe
000000c0: 15ef f8be 02f9 5a3f 5bf7 1ebe 5bf5 3e3e
000000d0: e94c e53e ed1f 603f 7c39 283f 663a 873e
000000e0: f91d 2e3f 75e9 5b3e d043 843e 4886 c73e
000000f0: 247d 2dbe ed03 113f 0b01 9e3d d684 2bbf

decoder_dense.1.0.weight f4 [16, 64]
0.5994671 -1.1761367 -1.4494883 -1.2528824 -0.07223166 0.78100365 0.7662375 0.5845743
-0.15964986 0.9384775 0.22080407 0.9490702 -0.46294117 0.4187345 -0.09681072 0.2509361
0.59255123 0.48077637 -0.58343065 0.03014919 0.15001859 -0.8392041 -1.0600756 -0.49751362
0.47922382 0.081755735 1.01791 0.11376434 0.29179856 0.40968865 0.2689232 -0.13719426
-1.2291168 0.13783315 -0.73545057 -0.4732768 -0.054778688 -1.0050182 -0.8154642 0.16802433
-1.2106599 -0.629661 0.9718526 -0.22856332 -0.105899006 0.5036698 -2.2170477 -0.047320504
0.66789514 -0.38173962 0.3891826 -0.29887906 -0.06878889 0.34405503 0.09067862 0.1712847
1.0591415 0.45375496 1.1441753 -3.141345 0.31019205 0.14827366 -0.06752089 -0.9601709
-0.07923185 0.26122707 0.042872854 -0.14838648 0.49180168 -0.3630517 0.07596386 0.16098416
-0.18010911 -0.31400338 -0.04230423 -0.71019363 0.3375779 0.12342674 0.03182757 0.33360344
-0.08687751 0.25637525 -0.40104097 0.27282548 0.19222642 -0.20580836 0.22762923 0.518512
-0.060784936 -0.18119383 0.023435038 0.12259238 0.3188389 -0.31070417 0.3686051 0.063450456
-0.1663406 -0.009803307 -0.26111078 0.37795457 0.107937895 -0.29639557 -0.29761353 0.020637473
-0.08055711 -0.17190142 -0.013974191 0.28834397 -0.13130759 0.14264163 0.17504182 0.24891026
-0.11520187 -0.4979451 -0.19775419 0.2115721 0.10047601 0.26998153 -0.18184535 0.015221731
-0.23047511 -0.5908704 -0.27730188 -0.34723327 -0.009568759 0.024844192 0.3426171 -0.3487044
-0.12951228 -0.33599088 0.086650826 0.20158577 0.26379633 -0.25784746 0.25487313 0.15754011
0.12887043 0.42718402 -0.24901675 -0.492051 -0.54275304 -0.18424043 0.03810225 0.23029053
0.061432384 -0.2019859 0.21775278 0.21438773 0.20740639 -0.3752713 0.24149077 0.5625666
-0.2089731 -0.21348985 0.3687147 0.31324366 0.044884793 -0.101960145 0.15966171 -0.08882212
-0.0841227 0.35125256 -0.21122673 0.3319171 0.049022846 -0.37217093 0.49520037 -0.034003414
-0.12646236 -0.1807407 0.18936877 0.26014945 -0.1226478 -0.120986424 -0.22034273 -0.14983426
0.3256843 -0.35338148 -0.47798607 0.42145315 0.21120298 -0.20983274 -0.49062574 -0.4317373
-0.04838957 -0.31420454 -0.15141751 -0.044809826 -0.032248802 0.3254509 0.15107492 -0.16355218
0.05150506 -0.60539407 -0.0513398 -0.24051777 0.13432856 0.2825389 -0.10621404 -0.36838537
0.09063845 0.14125459 0.47418937 0.33796167 -0.40466085 0.12297647 0.09394644 0.14275503
0.16936475 -0.1675454 0.23368749 0.014633534 0.29967788 0.013165548 0.04015449 0.13544995
0.14962345 0.10891257 -0.11777861 -0.12864898 -0.17023882 0.20684454 0.14599113 -0.015984278
0.24040551 0.7305982 0.24004012 -0.27836034 0.17255817 0.28970262 -0.0784362 0.43489724
0.57803196 0.17587566 -0.01073895 -0.18517086 -0.12144619 0.19598198 0.020654729 0.09812294
0.10078427 0.1633149 0.24794553 -0.074885465 -0.22834805 -0.2878491 0.23250246 0.30807796
0.026949534 0.16427842 0.07753878 0.18831453 0.06215837 0.42483842 -0.29793444 0.2895615
00000000: ad76 193f a68b 96bf d588 b9bf 735e a0bf
00000010: 31ee 93bd dbef 473f 2428 443f a9a6 153f
00000020: 417b 23be 1040 703f 761a 623e 44f6 723f
00000030: a006 edbe 5e64 d63e b344 c6bd b27a 803e
00000040: 70b1 173f 5228 f63e b65b 15bf 6ffb f63c
00000050: 799e 193e 14d6 56bf 8fb0 87bf 1bba febe
00000060: d35c f53e 8d6f a73d e04a 823f 47fd e83d
00000070: 9f66 953e b6c2 d13e 4db0 893e a77c 0cbe
00000080: b353 9dbf 2224 0d3e 7d46 3cbf 5651 f2be
00000090: 9e5f 60bd 70a4 80bf 43c2 50bf 920e 2c3e
000000a0: e7f6 9abf 7731 21bf 55cb 783f 810c 6abe
000000b0: 94e1 d8bd 81f0 003f 1ce4 0dc0 25d3 41bd
000000c0: 2dfb 2a3f 6073 c3be f142 c73e ad06 99be
000000d0: 31e1 8cbd fb27 b03e b6b5 b93d 4265 2f3e
000000e0: f391 873f 9252 e83e 5674 923f cc0b 49c0
000000f0: 7ed1 9e3e 0dd5 173e 6448 8abd c3cd 75bf
00000100: 4f44 a2bd 8ebf 853e 729b 2f3d a0f2 17be
00000110: 6ecd fb3e eae1 b9be f192 9b3d 08d9 243e
00000120: 866e 38be 0dc5 a0be 3347 2dbd 40cf 35bf
00000130: 03d7 ac3e 29c7 fc3d a05d 023d 12ce aa3e
00000140: d6ec b1bd 9e43 833e 3e55 cdbe c8af 8b3e
00000150: 01d7 443e 6dbf 52be a317 693e 34bd 043f
00000160: a0f9 78bd e08a 39be d6fa bf3c b711 fb3d
00000170: da3e a33e 9e14 9fbe cfb9 bc3e 50f2 813d
00000180: 3155 2abe 0d9e 20bc 50b0 85be 4383 c13e
00000190: 8b0e dd3d 29c1 97be cd60 98be eb0f a93c
000001a0: 20fb a4bd ed06 30be 01f4 64bc d2a1 933e
000001b0: 7f75 06be a610 123e 2a3e 333e 55e2 7e3e
000001c0: f5ee ebbd a9f2 febe 1380 4abe 5ba6 583e
000001d0: 5ec6 cd3d 053b 8a3e ab35 3abe 9164 793c
000001e0: ab01 6cbe 4843 17bf 83fa 8dbe 8fc8 b1be
000001f0: 49c6 1cbc 0c86 cb3c 826b af3e 6289 b2be
00000200: de9e 04be ff06 acbe fd75 b13d 806c 4e3e
00000210: 5010 873e 9504 84be bb7e 823e 3252 213e
00000220: 9cf6 033e ddb7 da3e 3ffe 7ebe 1cee fbbe
00000230: ddf1 0abf 86a9 3cbe 1b11 1c3d 48d1 6b3e
00000240: 86a0 7b3d 64d5 4ebe 96fa 5e3e 7588 5b3e
00000250: 5762 543e 8f23 c0be 5b49 773e 5d04 103f
00000260: 0bfd 55be 159d 5abe 2cc8 bc3e 7961 a03e
00000270: 1ed9 373d 7bd0 d0bd 5c7e 233e 5fe8 b5bd
00000280: 8648 acbd 60d7 b33e d24b 58be 0af1 a93e
00000290: 2ecc 483d 308d bebe e78a fd3e 2a47 0bbd
000002a0: 597f 01be 1714 39be e3e9 413e 4f32 853e
000002b0: c52e fbbd bbc7 f7bd 86a1 61be 276e 19be
000002c0: 18c0 a63e 6bee b4be 97ba f4be b5c8 d73e
000002d0: 9845 583e 65de 56be 4c33 fbbe ac0c ddbe
000002e0: 2434 46bd 6bdf a0be 310d 1bbe 828a 37bd
000002f0: 5217 04bd 80a1 a63e 62b3 1a3e 397a 27be
00000300: f8f6 523d 1bfb 1abf af49 52bd 4a4a 76be
00000310: 6d8d 093e f0a8 903e bf86 d9bd 029d bcbe
00000320: a7a0 b93d 0ba5 103e f3c8 f23e 5009 ad3e
00000330: b52f cfbe 16db fb3d fe66 c03d 602e 123e
00000340: f46d 2d3e 0591 2bbe c64b 6f3e 7dc1 6f3c
00000350: 616f 993e 50b4 573c 0979 243d 64b3 0a3e
00000360: e436 193e 8e0d df3d e935 f1bd 8fbc 03be
00000370: 1653 2ebe 0ecf 533e b37e 153e 76f1 82bc
00000380: dd2c 763e 7c08 3b3f 14cd 753e 3f85 8ebe
00000390: 17b3 303e e753 943e 29a3 a0bd daaa de3e
000003a0: e7f9 133f c018 343e 6cf2 2fbc 6e9d 3dbe
000003b0: c8b8 f8bd 80af 483e 1b34 a93c aef4 c83d
000003c0: fc67 ce3d 053c 273e 6fe5 7d3e 8d5d 99bd
000003d0: 12d4 69be f560 93be 2015 6e3e 65bc 9d3e
000003e0: 45c5 dc3c 9a38 283e a7cc 9e3d 86d5 403e
000003f0: c699 7e3d 6c84 d93e dd8a 98be 6841 943e

decoder_dense.1.0.bias f4 [16]
-0.6862232 0.8874259 1.0388895 -0.5661842 -0.48229638 0.6058156 0.20402414 -0.18073899
-0.8056442 -0.50272745 0.5205298 0.13776818 0.10386845 -0.14810106 -0.4861053 -0.5616132
00000000: 53ac 2fbf 582e 633f 55fa 843f 73f1 10bf
00000010: 8def f6be bb16 1b3f b4eb 503e a413 39be
00000020: b33e 4ebf bfb2 00bf 7141 053f 1a13 0d3e
00000030: fbb8 d43d cea7 17be cbe2 f8be e2c5 0fbf

decoder_dense.2.0.weight f4 [196, 16]
2.1517854 -0.24556823 0.7225913 1.8295388 0.16949081 -1.1961963 -1.7099805 -0.22562163
-0.5912095 -0.02182168 -0.1803357 -0.17231996 0.010794073 -0.44659805 -0.06483967 0.43351328
1.8609996 -0.21170534 0.1656529 0.6818952 0.012205684 0.42710054 0.010959231 0.04460056
-0.527748 -0.6576299 1.0946479 -0.43913838 -0.02623095 -0.01797234 0.21069477 1.2215794
0.22379988 -0.24505219 0.5189596 0.7323821 0.5446698 -0.098409854 0.6809322 0.21617313
-0.6496182 0.13421084 0.9898452 -0.8248357 0.23104523 -0.5552408 -0.23475198 0.3934381
-0.048158973 -0.08441024 0.8411597 -0.48077124 0.27293512 -0.011753519 0.7103373 -0.28991964
-0.4271103 -0.4159846 0.68759334 -0.607112 0.46286353 0.046243288 0.035053656 0.73783636
-0.45659897 0.10044136 0.2717737 -0.32185194 -0.011540207 0.11945544 -0.32855508 -0.2261835
-0.4527723 -0.3696361 0.36777684 -0.1454547 0.5070574 0.5110403 -0.22118254 0.04843254
0.018202648 -0.08658672 0.33278182 -1.375392 0.16435432 0.9720893 0.25208998 -0.4997158
-0.42010945 -0.0451458 0.7755986 -0.556325 0.18052326 0.024328051 -0.6178812 1.1651704
1.2976196 1.5996011 -1.3534453 -0.4862273 0.080241516 -0.30733404 -4.2514896 0.73713994
0.012710454 -2.0375073 -1.8758441 2.6619086 -0.23381199 1.9044012 -0.8350783 -1.2557251
1.6599742 -0.030595507 0.68094957 0.78752905 0.6816442 -0.6861117 -0.44384813 0.200365
-0.48779497 0.3563872 -0.327474 0.664545 -0.027579317 -0.30606428 0.8356087 0.5875102
-0.03513751 0.08441031 0.29493394 0.71723 0.26927948 -0.52373135 0.33139536 -0.5791347
-0.10149394 0.020507285 0.02895623 -0.053861123 -0.0954605 0.52046275 0.38597223 -0.11616623
0.45931172 0.2645214 -0.08022825 -0.27075237 0.39961234 0.23566458 -0.2860026 0.5888463
0.045417883 -0.5518302 0.6210698 0.31687793 0.30824822 0.58194375 0.04925541 0.30390757
-0.26346225 0.16020492 0.4695358 0.44458947 -0.109843016 0.07593977 0.18793045 0.19339585
0.11069382 0.32467368 0.1301631 -0.361285 0.2696057 -0.25097242 0.36900914 -0.4563066
-0.36981392 0.13605347 0.15677556 -0.070321895 -0.12894456 0.21552406 -0.120733835 -0.28091857
0.3179608 -0.025604334 0.19907103 0.1987505 0.1976595 -0.19230272 0.10605621 0.18349698
0.46828803 0.2735853 -0.040023107 -0.009426386 0.2743865 -0.02393545 -0.34086388 -0.31439206
0.029868947 -0.21433285 -0.060342602 -0.2112703 0.03211454 0.5561091 -0.18495974 -0.64983284
-1.2639768 0.016309856 -0.019312948 0.07301189 0.04768527 0.30332455 -0.27661327 0.19048724
-0.34306094 0.23232646 -0.058597613 0.40240747 -0.0511533 -0.6158784 0.33682016 0.36301953
0.3006933 0.8021703 0.7022314 -0.32190233 0.3478527 -0.16223039 0.17720176 0.0862932
0.17860024 0.13977568 0.21602567 -0.10595475 0.06868124 0.355509 0.073358394 -0.5465719
-0.66483897 0.6464885 0.13700056 -0.23050193 0.26966253 -0.49722758 0.1728662 -0.04206533
-0.578878 0.63570535 -0.34052405 0.27463052 0.2838314 0.31905162 -0.11465521 -0.4460294
00000000: dab6 0940 3d76 7bbe befb 383f 542e ea3f
00000010: 008f 2d3e f61c 99bf a4e0 dabf 5b09 67be
00000020: 8159 17bf 61c3 b2bc eca9 38be a574 30be
00000030: a0d9 303c 80a8 e4be a9ca 84bd 74f5 dd3e
00000040: 3c35 ee3f 49c9 58be eaa0 293e af90 2e3f
00000050: 59fa 473c ecac da3e 598e 333c 14af 363d
00000060: 7e1a 07bf 6f5a 28bf 6c1d 8c3f bfd6 e0be
00000070: 4ae2 d6bc bb3a 93bc 5fc0 573e b75c 9c3f
00000080: cc2b 653e f6ee 7abe 89da 043f 657d 3b3f
00000090: 7b6f 0b3f 1b8b c9bd 9351 2e3f 7d5c 5d3e
000000a0: 614d 26bf 916e 093e 7f66 7d3f 6f28 53bf
000000b0: 1f97 6c3e 4324 0ebf d362 70be b870 c93e
000000c0: 5842 45bd 47df acbd 3e56 573f a627 f6be
000000d0: 27be 8b3e d591 40bc aad8 353f 5970 94be
000000e0: 34ae dabe effb d4be 1e06 303f b16b 1bbf
000000f0: 73fc ec3e 9a69 3d3d 6c94 0f3d d8e2 3c3f
00000100: 57c7 e9be 33b4 cd3d ec25 8b3e c7c9 a4be
00000110: 2313 3dbc 0ea5 f43d 5f38 a8be a69c 67be
00000120: c5d1 e7be f140 bdbe 3f4d bc3e 14f2 14be
00000130: 84ce 013f 89d3 023f ad7d 62be 3361 463d
00000140: b81d 953c 6154 b1bd 6162 aa3e d80c b0bf
00000150: 804c 283e d8da 783f f011 813e c0da ffbe
00000160: 9618 d7be cdea 38bd a18d 463f 516b 0ebf
00000170: 17db 383e 9f4b c73c 762d 1ebf 4e24 953f
00000180: 6618 a63f bbbf cc3f b23d adbf c9f2 f8be
00000190: aa55 a43d e35a 9dbe 340c 88c0 34b5 3c3f
000001a0: 823f 503c 8566 02c0 a91b f0bf b65c 2a40
000001b0: 696c 6fbe 6bc3 f33f b1c7 55bf 9abb a0bf
000001c0: 097a d43f 6ea3 fabc b652 2e3f 819b 493f
000001d0: 3c80 2e3f 04a5 2fbf 1040 e3be 7c2c 4d3e
000001e0: 43c0 f9be 6278 b63e acaa a7be 9f1f 2a3f
000001f0: 05ee e1bc 75b4 9cbe 74ea 553f 1267 163f
00000200: 5aec 0fbd 50df ac3d 9501 973e 639c 373f
00000210: 00df 893e 4213 06bf a7ac a93e 2c42 14bf
00000220: 0edc cfbd e5fe a73c 9e35 ed3c 7b9d 5cbd
00000230: cb80 c3bd 0c3d 053f 279e c53e 8fe8 edbd
00000240: e82a eb3e 596f 873e b54e a4bd 0ea0 8abe
00000250: fd99 cc3e 0e52 713e ef6e 92be a2be 163f
00000260: 1a08 3a3d be44 0dbf 6efe 1e3f d33d a23e
00000270: b6d2 9d3e 44fa 143f 0ac0 493d c699 9b3e
00000280: 86e4 86be c20c 243e ff66 f03e 3ba1 e33e
00000290: 60f5 e0bd 4f86 9b3d d770 403e 9009 463e
000002a0: 71b3 e23d a13b a63e 7a49 053e 59fa b8be
000002b0: c209 8a3e 757f 80be c4ee bc3e 05a1 e9be
000002c0: 4058 bdbe 9a51 0b3e c689 203e ed04 90bd
000002d0: 0b0a 04be 57b2 5c3e 4d43 f7bd 8fd4 8fbe
000002e0: c2cb a23e 2ec0 d1bc 47d9 4b3e 4085 4b3e
000002f0: 4167 4a3e 01eb 44be 0034 d93d a2e6 3b3e
00000300: 73c3 ef3e 5f13 8c3e 45ef 23bd 2171 1abc
00000310: 637c 8c3e 4714 c4bc b685 aebe fff7 a0be
00000320: b9af f43c 127a 5bbe ce29 77bd 3e57 58be
00000330: 898a 033d 2a5d 0e3f 1666 3dbe 725b 26bf
00000340: fec9 a1bf 3f9c 853c 3036 9ebc 4287 953d
00000350: a151 433d 5b4d 9b3e 41a0 8dbe 160f 433e
00000360: afa5 afbe fde6 6d3e 0d04 70bd 5a08 ce3e
00000370: 1f86 51bd 35aa 1dbf b173 ac3e b2dd b93e
00000380: 79f4 993e 085b 4d3f 70c5 333f 62d0 a4be
00000390: c019 b23e b91f 26be 6174 353e 7dba b03d
000003a0: fbe2 363e 5b21 0f3e d535 5d3e cefe d8bd
000003b0: c0a8 8c3d 4705 b63e ed3c 963d 23ec 0bbf
000003c0: e332 2abf 4580 253f e049 0c3e b308 6cbe
000003d0: 3511 8a3e 9d94 febe d603 313e b24c 2cbd
000003e0: 5931 14bf 96bd 223f 2b59 aebe 5f9c 8c3e
000003f0: 5952 913e bc5a a33e 5ad0 eabd f75d e4be

decoder_dense.2.0.bias f4 [196]
-2.6171343 -2.1034524 -0.67047274 -0.6065101 -0.6977992 -0.47211957 -0.29218596 -1.3720468
-0.33224255 0.28072125 -0.5130083 -1.2625791 0.5462334 -0.9089551 -0.9409802 0.43144888
0.030610152 -1.1736139 0.5506616 -0.8947396 -1.6729834 -0.8982285 0.42563164 -0.88607156
-0.4070063 -0.11607871 -0.8292719 0.034810584 -1.2271502 0.517164 -0.96501243 0.021540998
-0.94723266 -0.45830196 -0.6029823 1.601781 0.1444557 -0.64358264 -0.8042445 -0.2323157
0.074238084 1.8382947 -1.7664158 -0.68142563 -0.15730482 0.12108821 -1.0132644 -0.5299796
1.3814623 0.51945466 -0.34454143 1.5603346 -0.06402181 0.052231014 0.7718138 -2.4069827
0.47322688 2.1003323 -0.58651304 -0.91763705 -0.73934984 -0.33870316 0.05984682 0.24713002
0.7894842 -0.37918383 -0.198501 0.17685878 0.29227528 -2.7044523 0.7395161 -0.22881515
-0.28170833 -0.80417913 0.024796393 0.84568495 0.97914904 -0.72541004 -0.12839374 0.48932892
0.16653849 -0.4245935 0.55085856 0.10815428 1.497164 -0.49504802 -0.412676 -1.8864403
-0.11625764 -0.38360786 1.4145999 1.5268973 -0.06560107 -0.5192825 0.5273346 1.0586727
1.0769273 0.8988224 -1.2527578 -0.2724178 -0.2003307 -0.6982677 -0.8415421 0.52789456
0.1525556 -1.8451471 -0.8322584 -0.56151074 -0.49886465 0.43676952 0.43028083 -0.53961974
-0.3837835 0.83006984 -0.46209255 -0.59629005 -0.69368863 1.1587799 0.90296614 -0.55577743
0.4235034 0.031779535 -0.00039974463 -0.55024403 0.13310581 1.5495727 -1.9427449 -0.13351555
-0.13165823 -0.51433194 0.053898863 1.3482721 -0.077744186 -1.1564145 -1.179082 0.08000465
-0.35421932 -1.0722935 0.45795083 -1.5527874 -1.5110399 -1.5609838 -0.45091352 -1.0696008
0.5890216 1.0024549 -0.89961314 0.93067145 1.6758362 2.480693 -1.4890592 -1.3364495
-0.38322946 -0.78625894 1.9758887 1.1535587 -1.4895959 -0.24949722 -0.16438965 0.2885393
1.827006 1.9956274 0.6526915 -0.32517818 -0.20401555 -0.24171281 0.10024519 1.0133396
0.2268658 1.2903692 -0.80511177 1.0882162 0.42201117 0.34043667 1.9910929 -0.04579239
0.526984 0.60217124 -0.1926027 1.0166678 -0.2822565 1.6091105 0.41067526 0.54799163
-0.13588667 -0.42788967 -0.4449235 0.3961255 1.6379392 -2.1004984 0.13397355 -1.0056375
0.20717813 -1.6023209 -0.5027895 1.3986582
00000000: 217f 27c0 f79e 06c0 1aa4 2bbf 3f44 1bbf
00000010: f8a2 32bf a8b9 f1be 6699 95be 3b9f afbf
00000020: b21b aabe b2ba 8f3e 8354 03bf 319c a1bf
00000030: f4d5 0b3f 48b1 68bf 14e4 70bf dee6 dc3e
00000040: 24c2 fa3c fb38 96bf 29f8 0c3f a80d 65bf
00000050: 5224 d6bf 4ef2 65bf 64ec d93e 96d5 62bf
00000060: 2163 d0be adba edbd 2a4b 54bf 8b95 0e3d
00000070: 4213 9dbf dc64 043f 0e0b 77bf bf76 b03c
00000080: d77d 72bf 8ea6 eabe 0c5d 1abf 2907 cd3f
00000090: 32ec 133e d5c1 24bf f8e2 4dbf 2be4 6dbe
000000a0: 230a 983d 3e4d eb3f ea19 e2bf e971 2ebf
000000b0: 8414 21be 18fd f73d a6b2 81bf beac 07bf
000000c0: c2d3 b03f fbfa 043f bc67 b0be 0bb9 c73f
000000d0: de1d 83bd 30f0 553d 9795 453f 010c 1ac0
000000e0: cb4a f23e d86b 0640 b825 16bf 43ea 6abf
000000f0: 0846 3dbf 806a adbe f021 753d a70f 7d3e
00000100: a31b 4a3f 6224 c2be d943 4bbe 781a 353e
00000110: 1ba5 953e bf15 2dc0 ed50 3d3f 854e 6abe
00000120: 133c 90be afde 4dbf ce21 cb3c cf7e 583f
00000130: 83a9 7a3f 79b4 39bf a679 03be 5289 fa3e
00000140: 1189 2a3e 5264 d9be 1105 0d3f fe7f dd3d
00000150: 12a3 bf3f ef76 fdbe 454a d3be e076 f1bf
00000160: 7c18 eebd 4068 c4be 9c11 b53f 5f71 c33f
00000170: db59 86bd b3ef 04bf 66ff 063f 9682 873f
00000180: c1d8 893f 3a19 663f 5e5a a0bf 597a 8bbe
00000190: 7e23 4dbe acc1 32bf 4e6f 57bf 1924 073f
000001a0: 8937 1c3e c82d ecbf e30e 55bf 2bbf 0fbf
000001b0: 306b ffbe 41a0 df3e c54d dc3e 8524 0abf
000001c0: 457f c4be 757f 543f 6597 ecbe 77a6 18bf
000001d0: 9495 31bf e652 943f ca28 673f 6e47 0ebf
000001e0: 70d5 d83e 422b 023d d194 d1b9 cbdc 0cbf
000001f0: e44c 083e 6658 c63f ddab f8bf 4db8 08be
00000200: 6ad1 06be 42ab 03bf 0ec5 5c3d 2e94 ac3f
00000210: 5838 9fbd 6405 94bf 29ec 96bf 7ad9 a33d
00000220: 3c5c b5be ea40 89bf 8878 ea3e bdc1 c6bf
00000230: c169 c1bf 51ce c7bf 23de e6be aee8 88bf
00000240: 1fca 163f 7150 803f 0c4d 66bf 7c40 6e3f
00000250: cd81 d63f adc3 1e40 7e99 bebf c710 abbf
00000260: a736 c4be 4448 49bf ece9 fc3f d0a7 933f
00000270: 14ab bebf 337c 7fbe c355 28be 6cbb 933e
00000280: 55db e93f b870 ff3f ca16 273f c17d a6be
00000290: 74e9 50be 9083 77be 5a4d cd3d 1db5 813f
000002a0: 824f 683e d12a a53f ce1b 4ebf ab4a 8b3f
000002b0: d911 d83e b74d ae3e 22dc fe3f cd90 3bbd
000002c0: 6ce8 063f e527 1a3f a439 45be 2c22 823f
000002d0: ed83 90be 55f7 cd3f 0744 d23e 2e49 0c3f
000002e0: e025 0bbe 5b14 dbbe 03cd e3be f6d0 ca3e
000002f0: fea7 d13f 916e 06c0 5d30 093e bbb8 80bf
00000300: 8126 543e da18 cdbf d0b6 00bf 3b07 b33f

decoder_deconv.0.0.weight f4 [4, 16, 3, 3]
-0.02442604 0.04258173 0.07975661 0.30563322 -0.057712078 -0.18856229 -0.47669387 -0.14415967
0.4121573 0.14229596 -0.023601294 -0.050809152 0.009259842 -0.08795054 -0.04587043 0.05841422
0.19706511 0.049351178 0.07299498 0.07983339 0.098162584 0.017820232 0.64384514 0.07629189
0.04864877 -0.53836167 -0.7702117 0.35215914 -0.06435396 0.42101216 -0.11849204 0.023468437
-0.32501993 0.17319614 -0.8723035 -0.383087 0.2000618 0.15486509 0.032016505 -0.22193404
0.373787 0.34617457 0.068141356 -0.1065406 -0.3069324 0.28524524 -0.029113207 0.019493993
-0.43829668 -0.15217161 0.38374665 -0.029457472 0.049902786 0.42589676 -0.31532773 0.42770126
-0.3166773 -0.3030922 0.008618243 -0.16235061 -0.8233917 0.39016125 0.21783134 -0.41164133
-0.11187245 0.47505832 0.14682868 0.40668204 0.23654209 -0.25022355 -0.6181304 -0.14654256
0.15075421 0.20371456 -0.04318096 -0.11108457 -0.40960196 -0.0058704726 0.12045131 0.29847744
0.3146582 -0.0633529 0.3044763 -0.15838124 0.0013244285 -0.34298816 -0.36691773 -0.25125942
0.35252637 0.501401 0.53866225 -0.21184231 0.21946043 0.05847579 -0.20487356 0.019003998
0.4417242 0.0085283 0.25420853 -0.23021479 -0.047202766 0.16741757 -0.21555577 -0.37848073
-0.05969108 -0.32003173 0.024279099 0.6448966 0.23958285 0.007213392 0.03565709 -0.37633252
0.1697425 0.22886692 0.35710785 0.17415574 -0.2562233 -0.16956213 -0.32281682 0.16217446
-0.1415954 0.29282904 0.12548535 0.2522435 -0.01146033 -0.16975152 0.37568918 0.106601976
0.23255005 0.40969926 -0.22351362 -0.13637662 0.033531632 -0.22421603 -0.06794542 0.0006597297
0.22196376 0.21787927 0.0885379 -0.076038726 -0.18037575 0.14428605 -0.0020509916 -0.15883957
0.20090093 -0.1380856 -0.22690547 0.45305246 0.762833 0.048791938 0.29347134 0.8856076
0.34220937 0.16235097 0.0113381315 0.08466653 0.9816658 0.33054155 0.32509497 0.041449312
0.12597582 -0.04529267 -0.49891195 0.15539178 0.0048561287 -0.6848989 -0.59281576 0.2465235
-0.35336798 -0.5119508 0.32080522 0.06451965 0.22209118 -0.29130903 -0.6839635 -0.14614771
-0.17157063 -0.48091674 -0.42649707 0.5968445 -0.19421814 0.03607791 0.22684652 0.18808293
-0.18421791 0.431478 -0.21443759 -0.42581636 0.14847884 0.3549431 -0.021329738 0.2629398
-0.28293526 -0.08968557 -0.3782883 -0.16008975 -0.27506584 -0.19402601 -0.029048402 -0.18368684
0.22267763 -0.6806487 0.19131042 0.090176225 0.3514015 0.1261235 0.2530348 0.046399824
-0.054029346 -0.18233633 -0.26163417 -0.39093536 -0.20092161 -0.32616332 -0.3213489 -0.54136145
-0.11052616 -0.015843904 0.12659875 -0.31263384 -0.1682315 -0.3989947 0.12371583 -0.017992496
-0.13607879 0.14914025 -0.22698864 0.34992486 0.32345402 -0.20042047 -0.283775 0.37361372
0.19467065 0.029962735 0.06209384 0.098284304 -0.2327902 -0.17496486 -0.34081087 -0.21575217
0.3316368 -0.34076822 0.044698004 0.27964464 -0.12462108 0.21182391 0.14751065 -0.08625258
-0.25156623 0.57119834 -0.0041546337 -0.30484694 -0.16437796 0.066992335 -0.25231034 -0.7696161
00000000: 1e19 c8bc 2e6a 2e3d 6f57 a33d f57b 9c3e
00000010: 8063 6cbd 7916 41be 3811 f4be 989e 13be
00000020: 4806 d33e 08b6 113e 8057 c1bc 421d 50bd
00000030: 98b6 173c 6a1f b4bd a2e2 3bbd c043 6f3d
00000040: 70cb 493e 7624 4a3d 647e 953d b07f a33d
00000050: 7709 c93d bcfb 913c 09d3 243f ec3e 9c3d
00000060: ef43 473d 12d2 09bf 982c 45bf 344e b43e
00000070: 02cc 83bd e88e d73e f4ab f2bd e140 c03c
00000080: 0369 a6be 545a 313e 484f 5fbf fb23 c4be
00000090: 00dd 4c3e f494 1e3e bd23 033d ad42 63be
000000a0: 0261 bf3e cb3d b13e b28d 8b3d f531 dabd
000000b0: 3e26 9dbe aa0b 923e d27e eebc deb1 9f3c
000000c0: 6c68 e0be e0d2 1bbe 717a c43e cc50 f1bc
000000d0: dd66 4c3d 240f da3e a372 a1be a9fb da3e
000000e0: 8723 a2be e72e 9bbe 8833 0d3c 3d3f 26be
000000f0: ccc9 52bf 37c3 c73e 2e0f 5f3e a7c2 d2be
00000100: 621d e5bd d83a f33e 425a 163e a138 d03e
00000110: 1738 723e 4d1d 80be cb3d 1ebf 410f 16be
00000120: 505f 1a3e 8d9a 503e 85de 30bd 4f80 e3bd
00000130: 59b7 d1be 185d c0bb 2daf f63d 09d2 983e
00000140: e11a a13e 2abf 81bd 51e4 9b3e b12e 22be
00000150: 7298 ad3a 259c afbe a4dc bbbe 13a5 80be
00000160: 567e b43e d15b 003f c5e5 093f 31ed 58be
00000170: 3cba 603e 4f84 6f3d 60ca 51be 46ae 9b3c
00000180: ad29 e23e 48ba 0b3c 9f27 823e 6dbd 6bbe
00000190: b057 41bd 836f 2b3e a7ba 5cbe 3ac8 c1be
000001a0: a27e 74bd 33db a3be f6e4 c63c f217 253f
000001b0: 3555 753e 515e ec3b 2b0d 123d a8ae c0be
000001c0: fad0 2d3e 175c 6a3e d7d6 b63e e255 323e
000001d0: b32f 83be b2a1 2dbe 3f48 a5be 1011 263e
000001e0: 62fe 10be b0ed 953e 3b7f 003e 0f26 813e
000001f0: 1cc4 3bbc 58d3 2dbe 555a c03e 2352 da3d
00000200: 9a21 6e3e 1ac4 d13e c1e0 64be 50a6 0bbe
00000210: 7758 093d e398 65be f826 8bbd b6f1 2c3a
00000220: 784a 633e be1b 5f3e 5c53 b53d 31ba 9bbd
00000230: 6cb4 38be b9bf 133e ee69 06bb d7a6 22be
00000240: f9b8 4d3e 5066 0dbe e859 68be 7ef6 e73e
00000250: 0649 433f 0eda 473d e041 963e 2eb7 623f
00000260: 1136 af3e 553f 263e 92c3 393c a565 ad3d
00000270: 734e 7b3f be3c a93e d972 a63e c1c6 293d
00000280: ceff 003e cf84 39bd 6371 ffbe 061f 1f3e
00000290: 2920 9f3b 8955 2fbf c6c2 17bf a870 7c3e
000002a0: a6ec b4be 350f 03bf 9540 a43e e122 843d
000002b0: df6b 633e 7526 95be 3b18 2fbf bfa7 15be
000002c0: 36b0 2fbe b83a f6be d35d dabe cdca 183f
000002d0: 1fe1 46be 6ec6 133d 744a 683e d098 403e
000002e0: 9fa3 3cbe afea dc3e 8795 5bbe 9a04 dabe
000002f0: d60a 183e 1abb b53e b4bb aebc 0ca0 863e
00000300: e4dc 90be 11ad b7bd 01af c1be 91ee 23be
00000310: 6ed5 8cbe c1ae 46be eaf6 edbc 6718 3cbe
00000320: 9b05 643e fe3e 2ebf e1e6 433e 50ae b83d
00000330: e6ea b33e 8526 013e c78d 813e be0d 3e3d
00000340: e04d 5dbd 60b6 3abe eaf4 85be ae28 c8be
00000350: 65be 4dbe e1fe a6be d887 a4be aa96 0abf
00000360: 8a5b e2bd 13cb 81bc 1aa3 013e 8b11 a0be
00000370: e144 2cbe 0949 ccbe ba5e fd3d 0065 93bc
00000380: 3d58 0bbe 39b8 183e b66f 68be 5a29 b33e
00000390: c49b a53e 063b 4dbe f54a 91be 4c4a bf3e
000003a0: be57 473e 6974 f53c 1c56 7e3d 4849 c93d
000003b0: 8e60 6ebe fd29 33be c37e aebe 23ee 5cbe
000003c0: 4ccc a93e 2c79 aebe 4115 373d 952d 8f3e
000003d0: 5639 ffbd 5ee8 583e 080d 173e 31a5 b0bd
000003e0: 4acd 80be 0e3a 123f 9823 88bb e614 9cbe
000003f0: b252 28be 4733 893d d22e 81be 9005 45bf

decoder_deconv.0.0.bias f4 [16]
-0.4487257 -0.46889994 -0.099530265 0.2376395 -0.46897566 -0.08389291 -0.13824727 0.6541828
0.8264117 -0.42940283 0.3014278 -0.10466087 0.3516602 0.08331326 0.3684905 0.1533236
00000000: 60bf e5be a713 f0be 86d6 cbbd c557 733e
00000010: 941d f0be 0cd0 abbd b190 0dbe 8678 273f
00000020: b88f 533f b0da dbbe bf54 9a3e 7058 d6bd
00000030: ce0c b43e 24a0 aa3d c9aa bc3e dd00 1d3e

decoder_deconv.1.0.weight f4 [16, 8, 3, 3]
-0.04788217 -0.4357809 -0.41641295 -0.4006746 -1.063471 -0.7264302 -0.34655288 -0.708318
-0.41767475 -0.27341673 -0.65186954 -0.29472587 -0.7908566 -1.0896426 -0.3828178 -0.37671462
-0.4959584 -0.17241013 0.084808275 -0.03755611 -0.40721396 0.22150865 0.34010822 -0.21562381
0.19316807 0.0037367695 -0.42452356 -0.27777487 -0.73519075 -0.30565318 -0.395557 -0.57138705
-0.07917715 -0.04155641 -0.023552703 0.048756074 -0.02322286 -0.29598188 -0.40052956 -0.8284524
0.1855418 -0.3367971 -0.07587217 -0.29575515 -0.4938865 -0.26063845 -0.5501712 -0.27772856
-0.8601548 -1.0709114 -0.35070062 -0.36116862 -0.4179773 -0.14732367 -0.23330449 0.28496045
-0.2453546 0.067422666 -0.39085653 -0.34295663 0.11652724 -0.11817216 -0.20762089 -9.94813e-05
-0.0005908253 -0.00017674078 -0.00048691884 -0.00025593588 -0.0006451321 -0.00044124946 -0.00013231438 0.0006751257
0.080453634 0.37516248 0.23140052 0.42925715 0.36348033 -0.20945506 0.04551514 -0.47037736
-0.6209523 0.13123365 0.17537695 -0.020551495 -0.022861144 -0.44354275 -0.56639606 -0.5073978
-0.9910979 -0.57218206 0.038247947 -0.17865263 -0.1597985 0.01377575 0.0010613119 -0.12105553
-0.045789786 0.2511292 -0.016821152 0.0812429 -0.02553734 -0.19257325 -0.11756916 -0.89510185
-0.8566984 -0.3826111 -0.80878603 -0.4760254 0.04432414 0.14165315 0.080992654 0.30712092
-0.074727125 -0.243024 -0.5068698 -0.14219682 -0.053189095 0.10966031 0.18179445 0.01516061
0.10819124 -0.3778484 -0.4874543 -0.38241452 -0.8664441 -0.4361494 0.13600798 0.20768578
0.026497416 0.009674817 0.49535558 -0.3884891 0.15981562 -0.13115042 -0.5236027 3.0958072e-05
0.0001040106 0.00014615503 0.00016044486 0.00015536118 0.00019195033 -0.0007992331 -3.8762133e-05 -0.0014477029
0.033143263 -0.020823339 -0.15517229 -0.13765694 -0.48141623 -0.66549474 -0.08189869 -0.4551798
-0.4912422 -0.33072162 -0.53655076 -0.3515464 -0.6737107 -1.0191181 -0.6441563 -0.28690827
-0.5221498 -0.27923313 0.00695036 -0.08051761 -0.75153446 0.0648057 -0.111134805 -0.72507477
0.28028068 0.1598572 -0.20252608 -0.30570155 -0.6716931 -0.42060342 -0.4155448 -0.7971237
-0.5182318 -0.13962647 -0.22239782 -0.08234585 -0.3819315 -0.17396063 -0.5240008 -0.6515518
-0.16933142 -0.40695426 -0.13923521 -0.21017602 -0.40229493 -0.12531973 -0.2999933 -0.33024713
-0.5602564 -0.88640463 -0.5669117 -0.28507847 -0.4713888 -0.23972318 -0.49193206 0.55104566
-0.5796896 0.14376667 0.18193051 -0.6834597 -0.00068180356 -0.06589346 -0.39461347 0.0008050055
0.00016674749 0.00042060108 -0.00019685697 -0.00036167513 -0.00085819676 -0.00064569945 -0.000325733 -0.001119653
-0.1498984 -0.19841233 0.0020831185 -0.44181222 -0.72171575 -0.2963039 -0.5715345 -0.9328028
-0.30654728 -0.25132328 -0.45255512 -0.1531376 -0.75649273 -0.947506 -0.3132643 -0.60065997
-0.72645915 -0.1963554 0.22032093 -0.06319123 -0.28915548 -0.12105177 0.0385734 0.004477571
0.105452366 -0.18837133 -0.3202455 -0.24448033 -0.5507733 -0.14402507 -0.3273842 -0.89771014
-0.28521597 -0.23907034 -0.3294142 -0.063826926 -0.21944591 -0.36701006 -0.29113474 -1.305683
00000000: 1820 44bd ad1e dfbe 1434 d5be 3925 cdbe
00000010: d11f 88bf 54f7 39bf 616f b1be 5454 35bf
00000020: 77d9 d5be 47fd 8bbe ece0 26bf 4fe6 96be
00000030: 9475 4abf 6979 8bbf b200 c4be bde0 c0be
00000040: 42ee fdbe 488c 30be f6af ad3d 70d4 19bd
00000050: 597e d0be 2ad3 623e aa22 ae3e 7dcc 5cbe
00000060: dacd 453e 97e4 743b 275b d9be 8238 8ebe
00000070: 7635 3cbf 937e 9cbe 7286 cabe 6c46 12bf
00000080: a127 a2bd 0e37 2abd 99f1 c0bc 73b4 473d
00000090: de3d bebc f08a 97be 3612 cdbe 7515 54bf
000000a0: abfe 3d3e ab70 acbe de62 9bbd 386d 97be
000000b0: b1de fcbe 6772 85be 05d8 0cbf 7032 8ebe
000000c0: 1b33 5cbf a013 89bf 088f b3be 18eb b8be
000000d0: 1f01 d6be 04dc 16be 5fe7 6ebe 56e6 913e
000000e0: 3c3e 7bbe e514 8a3d 591e c8be 0398 afbe
000000f0: d5a5 ee3d 3f04 f2bd 929a 54be 9ea0 d0b8
00000100: 9de1 1aba 7e53 39b9 2449 ffb9 222f 86b9
00000110: 151e 29ba 8057 e7b9 dfbd 0ab9 ebfa 303a
00000120: e0c4 a43d 4c15 c03e 42f4 6c3e 98c7 db3e
00000130: 181a ba3e 637b 56be 156e 3a3d 4dd5 f0be
00000140: bbf6 1ebf 1d62 063e 0496 333e 9c5b a8bc
00000150: 4b47 bbbc 0918 e3be 55ff 10bf d2e4 01bf
00000160: 98b8 7dbf 867a 12bf e1a9 1c3d b7f0 36be
00000170: 38a2 23be afb3 613c b81b 8b3a f6eb f7bd
00000180: 128e 3bbd 0294 803e 83cc 89bc ad62 a63d
00000190: af33 d1bc ec31 45be 1ac8 f0bd 6525 65bf
000001a0: 9650 5bbf 9ae5 c3be 9a0c 4fbf 9ab9 f3be
000001b0: 3b8d 353d 860d 113e 7adf a53d f43e 9d3e
000001c0: 890a 99bd 49db 78be 38c2 01bf 0b9c 11be
000001d0: cfdc 59bd 9695 e03d 5328 3a3e 3564 783c
000001e0: 5e93 dd3d 5875 c1be 9c93 f9be d6cb c3be
000001f0: 48cf 5dbf f94e dfbe ad45 0b3e 95ab 543e
00000200: 1c11 d93c 2083 1e3c 3f9f fd3e 0be8 c6be
00000210: b5a6 233e 4c4c 06be d40a 06bf fad8 0138
00000220: 4420 da38 3141 1939 173d 2839 73e8 2239
00000230: 4646 4939 a083 51ba 8694 22b8 d9c0 bdba
00000240: 3bc1 073d b595 aabc 7ce5 1ebe f1f5 0cbe
00000250: 307c f6be dd5d 2abf 80ba a7bd 540d e9be
00000260: 1984 fbbe 5854 a9be 645b 09bf e4fd b3be
00000270: 4e78 2cbf 7672 82bf 6de7 24bf a4e5 92be
00000280: 9cab 05bf a5f7 8ebe d8bf e33b 6be6 a4bd
00000290: 9064 40bf dab8 843d a59a e3bd 809e 39bf
000002a0: f380 8f3e 9bb1 233e ff62 4fbe ea84 9cbe
000002b0: 14f4 2bbf 5559 d7be 4ac2 d4be 4c10 4cbf
000002c0: d7aa 04bf 3efa 0ebe 41bc 63be f1a4 a8bd
000002d0: 878c c3be bc22 32be eb24 06bf 19cc 26bf
000002e0: 3765 2dbe 4f5c d0be ad93 0ebe 6238 57be
000002f0: 9af9 cdbe d153 00be b998 99be 2716 a9be
00000300: f76c 0fbf 6aeb 62bf 2021 11bf cef5 91be
00000310: df59 f1be fe79 75be 85de fbbe 5411 0d3f
00000320: 8a66 14bf 9237 133e fe4b 3a3e 37f7 2ebf
00000330: 10bb 32ba 26f3 86bd c70a cabe 0107 533a
00000340: f0d8 2e39 1f84 dc39 646b 4eb9 379f bdb9
00000350: 9cf8 60ba 2844 29ba 25c7 aab9 52c1 92ba
00000360: f77e 19be 9a2c 4bbe ee84 083b 3635 e2be
00000370: 5dc2 38bf 25b5 97be 1650 12bf 2acc 6ebf
00000380: c4f3 9cbe 72ad 80be 4eb5 e7be 1ad0 1cbe
00000390: 82a9 41bf c18f 72bf 2e64 a0be dac4 19bf
000003a0: 3af9 39bf 6411 49be cf9b 613e 676a 81bd
000003b0: 300c 94be fee9 f7bd 24ff 1d3d 97b8 923b
000003c0: 69f7 d73d 6ae4 40be 38f7 a3be 0d59 7abe
000003d0: 7bff 0cbf 4f7b 13be e79e a7be 55d0 65bf
000003e0: d407 92be dbce 74be faa8 a8be b1b7 82bd
000003f0: 6eb6 60be bee8 bbbe 9d0f 95be 9f20 a7bf

decoder_deconv.1.0.bias f4 [8]
-0.85974854 -0.41798738 0.031454496 -0.68066376 -0.558097 -0.7185909 -0.44585782 1.0238351
00000000: 7b18 5cbf 7102 d6be 6ed6 003d fb3f 2ebf
00000010: 72df 0ebf 93f5 37bf 7a47 e4be 070d 833f

decoder_deconv.2.0.weight f4 [8, 8, 3, 3]
0.14277524 0.14691967 -0.03470155 0.039599083 -0.38329273 -0.4492459 0.11212071 -0.0845146
0.0804792 0.043378923 0.13126823 -0.06016473 -0.079116434 -0.040837698 -0.4114164 0.028795421
-0.0029535573 -0.061749622 0.20356031 -0.15279447 -0.10913962 0.0036573329 -0.42431036 -0.08068083
0.06890107 0.09478753 0.05789482 -0.010641538 0.101096034 -0.12908661 -0.02764821 -0.075990714
-0.21344818 0.018881299 0.045890816 0.041676044 0.18399848 -0.015700504 -0.21475857 -0.011342036
-0.49366167 -0.32280874 0.093657285 0.105233274 0.10564798 -0.0027770624 0.25328782 -0.3478788
-0.084760144 -0.20439589 -0.6133637 0.049509153 0.14771765 0.11488518 0.08414867 0.006463221
0.032376587 0.040676575 -0.18324225 -0.09270213 0.04939756 -0.055979174 0.036085743 -0.035435848
-0.106519945 0.06549587 0.0072898334 0.14025451 0.26819083 -0.0427852 0.010027697 -0.032813795
-0.26240513 -0.18837477 -0.2327018 -0.056147963 0.57588613 0.30180627 -0.28239995 0.10384785
-0.045977492 -0.15847546 -0.099226505 -0.09628785 -0.22695129 0.29877445 0.28737417 -0.21947701
0.019846402 0.06536136 -0.052658875 0.22150332 0.058710944 -0.044871982 0.3668686 0.047845427
-0.11504716 -0.15636761 -0.100951724 -0.12563595 0.044964727 0.07241423 -0.118403174 0.08286121
0.119925186 -0.034423277 -0.08183862 -0.073945835 -0.20147881 0.19872393 0.08324073 -0.13786198
0.47165826 0.18883722 -0.16672555 -0.18752974 -0.16168925 -0.30017895 0.12438969 0.1835715
-0.35109168 0.22255935 0.31038478 -0.101478495 -0.2576215 -0.22303712 -0.068784595 -0.08496985
-0.12250092 0.052423608 0.24493276 0.07002723 -0.108500965 0.074206494 -0.0017457842 0.14476627
0.057133295 0.057676174 0.093168266 -0.22529222 -0.17083494 0.11791249 -0.0028093902 0.03968778
-0.086629145 -0.113798395 -0.048251376 -0.47878504 -0.3455086 -0.021205666 -0.12785247 -0.0658875
-0.009370394 -0.036170617 -0.09951984 -0.04259231 -0.18272658 -0.27906352 -0.031716913 -0.044035368
-0.06681176 -0.010893101 -0.3030105 -0.16033486 -0.0032155172 -0.21644172 -0.08739399 -0.0042064167
0.012185521 0.0024634907 -0.0045483443 -0.04427743 -0.1489646 -0.041224517 -0.043809105 -0.09506112
-0.018833999 0.0054344498 0.00335682 0.004190858 -0.30535048 -0.28823364 -0.04752026 -0.29798457
-0.2049489 -0.021916112 -0.005332839 -0.0026092236 -0.0003948646 -0.14782031 -0.42443436 -0.12568484
-0.11543274 -0.27705365 -0.058981176 0.021949016 0.009470863 0.0123143075 -0.03669672 0.002091131
-0.0028891054 -0.21396115 -0.10130893 0.0026434606 -0.05918736 -0.02563235 -0.0040934677 0.04052051
0.100752495 0.036612753 0.17565037 0.17494231 0.01935046 0.042742576 0.025750654 0.0029928826
0.11914763 0.003464824 0.055536777 -0.22985882 -0.34559095 0.005960707 -0.16532047 0.44230205
0.33723336 0.07680533 -0.0057298145 -0.025486799 -0.03119886 -0.22076672 -0.05797682 -0.081934206
0.07657314 0.33532506 -0.082259 -0.3561828 -0.033944964 -0.1472962 0.30324447 0.105606794
-0.054605197 0.15530184 0.0056272037 0.043023255 -0.11392044 -0.13496226 -0.030837707 -0.041973077
0.2091354 -0.018453838 0.037456542 0.03720224 -0.011452271 -0.4031979 -0.14398992 -0.19367069
00000000: ac33 123e 1c72 163e 3623 0ebd a632 223d
00000010: f23e c4be 8f03 e6be 8b9f e53d fe15 adbd
00000020: 47d2 a43d 19ae 313d 2e6b 063e 4b6f 76bd
00000030: cc07 a2bd 6e45 27bd 2ca5 d2be 60e4 eb3c
00000040: 7890 41bb 2ced 7cbd 1d72 503e 2776 1cbe
00000050: 9884 dfbd ddaf 6f3b 353f d9be fe3b a5bd
00000060: 011c 8d3d f71f c23d 1e23 6d3d d859 2ebc
00000070: 700b cf3d 482f 04be 807e e2bc 05a1 9bbd
00000080: 2992 5abe f4ac 9a3c 02f8 3b3d 80b4 2a3d
00000090: 196a 3c3e 589e 80bc ace9 5bbe f2d3 39bc
000000a0: 39c1 fcbe 3047 a5be 64cf bf3d 8b84 d73d
000000b0: f85d d83d 60ff 35bb f1ae 813e 2c1d b2be
000000c0: ba96 adbd 284d 51be 6705 1dbf 1cca 4a3d
000000d0: 4c43 173e ec48 eb3d 2356 ac3d 6dc9 d33b
000000e0: 509d 043d 7b9c 263d dba3 3bbe 9dda bdbd
000000f0: 1955 4a3d 6b4a 65bd a5ce 133d 2e25 11bd
00000100: 2127 dabd b322 863d 8edf ee3b e19e 0f3e
00000110: 4f50 893e 893f 2fbd 364b 243c c267 06bd
00000120: f759 86be 51e5 40be 6149 6ebe 68fb 65bd
00000130: 466d 133f 5a86 9a3e ba96 90be 2eae d43d
00000140: e552 3cbd 6447 22be 4437 cbbd 9032 c5bd
00000150: eb65 68be f7f8 983e b522 933e 95be 60be
00000160: ec94 a23c 2ddc 853d d5b0 57bd c4d1 623e
00000170: e37a 703d afcb 37bd 33d6 bb3e 91f9 433d
00000180: d89d ebbd d51e 20be c7bf cebd b6a6 00be
00000190: ef2c 383d e94d 943d 5d7d f2bd 23b3 a93d
000001a0: 569b f53d 6cff 0cbd 029b a7bd ea70 97bd
000001b0: 7650 4ebe 497e 4b3e 1e7a aa3d b12b 0dbe
000001c0: 317d f13e 8b5e 413e 1aba 2abe cc07 40be
000001d0: de91 25be 0eb1 99be 06c0 fe3d 2bfa 3b3e
000001e0: 4ac2 b3be 99e6 633e c1ea 9e3e f5d3 cfbd
000001f0: f7e6 83be d863 64be f0de 8cbd ac04 aebd
00000200: c3e1 fabd 23ba 563d a7cf 7a3e 706a 8f3d
00000210: c135 debd 93f9 973d ccd2 e4ba 9c3d 143e
00000220: 9a04 6a3d da3d 6c3d 01cf be3d 01b3 66be
00000230: 5bef 2ebe 1b7c f13d bf1d 38bb a78f 223d
00000240: 9f6a b1bd 220f e9bd 3ca3 45bd 5023 f5be
00000250: 81e6 b0be 81b7 adbc c2eb 02be 07f0 86bd
00000260: 4886 19bc a427 14bd 0fd1 cbbd 4675 2ebd
00000270: ad1c 3bbe 6ae1 8ebe 98e9 01bd 6e5e 34bd
00000280: 9bd4 88bd fa78 32bc 3124 9bbe d22e 24be
00000290: 6dbb 52bb e6a2 5dbe 9ffb b2bd fbd5 89bb
000002a0: c8a5 473c 8472 213b 470a 95bb 405c 35bd
000002b0: 2d8a 18be 0adb 28bd 2d71 33bd 68af c2bd
000002c0: c249 9abc 7813 b23b 18fe 5b3b 7753 893b
000002d0: e656 9cbe 5c93 93be 9ba4 42bd 6f91 98be
000002e0: 20de 51be 6b89 b3bc 19bf aebb 82ff 2abb
000002f0: d405 cfb9 355e 17be 764f d9be 87b3 00be
00000300: 0068 ecbd fad9 8dbe 3f96 71bd 6cce b33c
00000310: ae2b 1b3c f3c1 493c 4d4f 16bd 5b0b 093b
00000320: 2557 3dbb a218 5bbe 0e7b cfbd e93d 2d3b
00000330: 726e 72bd effa d1bc 7f22 86bb d6f8 253d
00000340: 5357 ce3d 41f7 153d b1dd 333e 1424 333e
00000350: db84 9e3c d712 2f3d 09f3 d23c 3d24 443b
00000360: ac03 f43d 1a12 633b 887a 633d 1c60 6bbe
00000370: 4cf1 b0be 0952 c33b c549 29be 6a75 e23e
00000380: daa9 ac3e 1d4c 9d3d 2bc1 bbbb b1c9 d0bc
00000390: c094 ffbc ac10 62be 1a79 6dbd 1fcd a7bd
000003a0: 61d2 9c3d baaf ab3e 6877 a8bd 985d b6be
000003b0: e009 0bbd d1d4 16be dc42 9b3e 6048 d83d
000003c0: b3a9 5fbd 7207 1f3e 6864 b83b 2739 303d
000003d0: 1f4f e9bd 8c33 0abe 5c9f fcbc f6eb 2bbd
000003e0: 9727 563e 812c 97bc 086c 193d 6061 183d
000003f0: 4ea2 3bbc f56f cebe 1872 13be 9c51 46be

decoder_deconv.2.0.bias f4 [8]
-0.5227802 -0.30405846 0.038156003 0.6814395 -0.4112638 -0.6048542 0.5383767 0.36032367
00000000: ecd4 05bf 8dad 9bbe 7849 1c3d d272 2e3f
00000010: 2b91 d2be bad7 1abf 0ed3 093f 587c b83e
