models/mnist_encoder.pth (torch_old, 38131 bytes, 18 tensors)

encoder_conv.0.0.weight f4 [8, 1, 3, 3]
0	0x3c471241	0.012150348
1	0xbc5ec0ca	-0.013595769
2	0x3ba3e9e7	0.0050022486
3	0x3cf71b00	0.030164242
4	0x3b238d8a	0.002495619
5	0x3ad2f4b2	0.0016094653
6	0x3a618a3b	0.0008603667
7	0x3dfab812	0.1224214
8	0x3e025e71	0.12731339
9	0x3ca79ce8	0.02046056
10	0x3dd8cabe	0.10585545
11	0x3d986e37	0.07442897
12	0x3d172b0a	0.03690628
13	0xbd15bcf7	-0.036557164
14	0x3d425243	0.047441732
15	0x3e20e740	0.15713215
16	0x3d989902	0.07451059
17	0x3c49b147	0.012310333
18	0x3d83dad8	0.064382255
19	0x3d60f342	0.05491949
20	0x3d8051b6	0.06265585
21	0x3e11826d	0.1420991
22	0xbb749035	-0.00373174
23	0x3d9c5475	0.076332964
24	0x3dc0ddac	0.094172806
25	0xbcd61d49	-0.026137011
26	0xbc345d47	-0.011008567
27	0xbe086443	-0.13319497
28	0xbe21c8e7	-0.15799294
29	0xbe5f0050	-0.21777463
30	0xbc2a97e4	-0.01041219
31	0xbe041774	-0.12899572
32	0xbe36621b	-0.17810862
33	0x3e7c33d1	0.24629141
34	0x3e2452b3	0.16047172
35	0x3d22992d	0.03969686
36	0x3e2dc3af	0.16969179
37	0x3dd0b8b2	0.10191478
38	0xbe6373b6	-0.22212109
39	0x3da02188	0.078188956
40	0x3cf39332	0.029733274
41	0xbe31a823	-0.17349295
42	0xbea00f69	-0.31261757
43	0xbe17f278	-0.14838588
44	0xbdf9eaa5	-0.12202958
45	0xbd423b8e	-0.047420077
46	0xbdce1bf3	-0.10063925
47	0xbe257051	-0.16156127
48	0x3dd54e36	0.10415308
49	0x3e2bd895	0.16781838
50	0xbed2a8ce	-0.41144413
51	0xbdebb81b	-0.11509725
52	0xbeb16af9	-0.34651926
53	0xbd11da71	-0.035608713
54	0xbca3b29e	-0.019982632
55	0xbcfb3043	-0.030662661
56	0x3e2e695c	0.17032379
57	0xbdcca117	-0.09991663
58	0xbdae1215	-0.084995426
59	0x3e2bc56a	0.16774526
60	0xbdfa8411	-0.12232221
61	0xbe28a570	-0.1646936
62	0x3e1ef966	0.15524825
63	0x3dbac8f4	0.0912036
64	0x3dfafe77	0.122555666
65	0x3de71cd0	0.112847924
66	0x3b59c23a	0.003322734
67	0xbccc8c60	-0.02496928
68	0xbe0fe8a3	-0.14053588
69	0xbe054239	-0.13013543
70	0xbde73a3b	-0.112904035
71	0xbda2d265	-0.07950286

encoder_conv.0.0.bias f4 [8]
0	0xbab634e0	-0.0013901256
1	0xbdde5574	-0.10856143
2	0xbac66378	-0.0015135845
3	0xba3148b1	-0.0006762846
4	0xba281e71	-0.00064132275
5	0xba2d77d0	-0.000661728
6	0xbc16c214	-0.009201545
7	0x3cea243f	0.028581737

encoder_conv.1.0.weight f4 [8, 8, 3, 3]
0	0xbdafea37	-0.08589595
1	0xbe33564a	-0.17513385
2	0x3bc90c20	0.0061354786
3	0x3e8fd65c	0.2809323
4	0xbdfc6b4c	-0.12325153
5	0x3dcd1f9f	0.10015797
6	0xbd865927	-0.06559973
7	0x3d4707ff	0.04859161
8	0x3c089ae5	0.008337711
9	0x3dd68788	0.10475069
10	0x3d8bb981	0.068224914
11	0x3e96f15b	0.29481015
12	0x3e86adc8	0.2630446
13	0x3dda25da	0.10651751
14	0x3c876d45	0.016531596
15	0x3da6aad0	0.08138049
16	0x3e18cf55	0.14922841
17	0x3d2a279b	0.041541677
18	0xbea8f11e	-0.32996458
19	0xbe0cff06	-0.13769159
20	0xbe6b64f9	-0.22987737
21	0x3a3ad6b4	0.000712733
22	0xbe162feb	-0.14666717
23	0xbcc73cfa	-0.024321068
24	0x3e9d40da	0.3071354
25	0x3e1fcf05	0.15606315
26	0x3e88d237	0.2672288
27	0x3bd97010	0.0066356733
28	0xbe7aea82	-0.2450352
29	0xbe32d1af	-0.174628
30	0xbe1f7e13	-0.15575437
31	0xbe3b718a	-0.1830503
32	0xbddf6a5d	-0.10908959
33	0x3d04372b	0.032279175
34	0xbe409415	-0.18806489
35	0xbdb96d2a	-0.090540245
36	0x3dd61d3a	0.10454793
37	0x3d9d4791	0.07679666
38	0x3e699534	0.22810823
39	0x3dffb4f8	0.12485689
40	0x3d690529	0.056889687
41	0x3e6ca0e0	0.23108244
42	0x3e8941dd	0.26808062
43	0x3e89e98a	0.2693599
44	0x3e5a158d	0.21297283
45	0x3db05302	0.086095825
46	0x3cce40e2	0.025177423
47	0xbe620742	-0.22073081
48	0xbddc5320	-0.10758042
49	0x3e15f8d9	0.14645709
50	0xbef40d2c	-0.476663
51	0xbd7e9235	-0.062151153
52	0xbe38db8a	-0.18052498
53	0xbea4bde5	-0.32176128
54	0xbdbd8e05	-0.09255604
55	0xbc2ab3ba	-0.010418827
56	0x3d8d8447	0.069099955
57	0x3ce3ff19	0.027831601
58	0x3d8f11e0	0.06985831
59	0xbdc2dbbb	-0.095145665
60	0xbe06022d	-0.13086767
61	0xbd92be83	-0.071652435
62	0xbe86956b	-0.26285872
63	0x3d82f954	0.06395212
64	0xbb227c8a	-0.002479347
65	0x3df0f5ef	0.11765658
66	0x3e0e9584	0.13924223
67	0x3d74a417	0.0597268
68	0x3e890420	0.2676096
69	0x3baf56da	0.0053509297
70	0x3dec85d9	0.11548967
71	0x3e6facfd	0.23405834
72	0xbdec2f5f	-0.11532473
73	0x3d29c0b3	0.041443538
74	0x3e3bcf65	0.18340833
75	0xbe36eb81	-0.17863275
76	0xbd7ec8c5	-0.062203187
77	0x3e33500c	0.17511004
78	0x3eafc1a6	0.3432743
79	0xbc4e3d89	-0.012587913
80	0x3ecff496	0.40616292
81	0xbce97a02	-0.02850056
82	0xbd88c16f	-0.066775195
83	0xbc2e28df	-0.010629862
84	0xbc79bdac	-0.015242975
85	0xbc919146	-0.017769467
86	0xbd0c7a9f	-0.034296628
87	0xbc4b4c67	-0.012408352
88	0x3c64c59b	0.013963128
89	0x3de22d9b	0.11043855
90	0x3e840083	0.2578164
91	0x3e3b9039	0.18316735
92	0x3e845de3	0.2585288
93	0xbe569a10	-0.20957208
94	0x3da68eb7	0.081326894
95	0xbd9df436	-0.07712595
96	0x3e40e750	0.18838239
97	0x3dd37ff2	0.10327138
98	0x3cf28dce	0.029608633
99	0x3a0af16e	0.0005300258
100	0xbd9840d7	-0.07434242
101	0x3d63eba7	0.055644657
102	0xbd937b92	-0.072013035
103	0xbba81a9c	-0.005130125
104	0xbd3f36f5	-0.04668327
105	0xbd807ec1	-0.062741764
106	0xbc871463	-0.016489213
107	0xbd07a52d	-0.03311651
108	0xbc2f618f	-0.010704412
109	0xbd4efb18	-0.05053243
110	0xbe309525	-0.17244394
111	0x3d704e25	0.058668274
112	0x3d917d93	0.071040295
113	0xbd422fe1	-0.047408942
114	0xbcb0e988	-0.021595731
115	0x3d840082	0.06445409
116	0xbd4a17f6	-0.049339257
117	0xbcdb2a5c	-0.026753597
118	0xbe97001c	-0.2949227
119	0xbde7bb5d	-0.113150336
120	0x3d0f5574	0.034993604
121	0xbe4dc21a	-0.20093575
122	0xbe4fc37b	-0.20289414
123	0xbdd08a2d	-0.10182605
124	0x3d670dc3	0.05640961
125	0xbdc265f5	-0.09492103
126	0x3ceffda5	0.029295752
127	0xbdb98485	-0.09058479
128	0xbc8b1bce	-0.016981032
129	0xbdcdb951	-0.10045112
130	0xbd66a6d9	-0.056311462
131	0xbd938886	-0.07203774
132	0xbd197585	-0.03746559
133	0xbdce3a5f	-0.10069727
134	0x3d01feea	0.031737246
135	0xbdf6ec07	-0.120567374
136	0x3c8a4b72	0.016881678
137	0xbd0f113d	-0.03492855
138	0xbe95975a	-0.29217035
139	0xbd154c92	-0.036449976
140	0xbd17ba8f	-0.03704315
141	0xbec87e60	-0.39158916
142	0xbd22e67a	-0.03977058
143	0xbe29c3f8	-0.16578662
144	0xbe4d3c4e	-0.20042536
145	0x3e9be53e	0.30448335
146	0x3d12e9f3	0.035867643
147	0xbda54dfd	-0.08071516
148	0x3c7167e3	0.014734241
149	0xbda36684	-0.07978538
150	0x3e284dc7	0.1643592
151	0xbd04d624	-0.032430783
152	0x3dd72fa3	0.10507133
153	0xbe14bb7f	-0.14524649
154	0xbeb07ccb	-0.3447021
155	0xbed069d1	-0.40705732
156	0xbed4bcfe	-0.4155044
157	0xbe860722	-0.26177317
158	0xbe2aa838	-0.16665733
159	0xbd006052	-0.03134186
160	0xbeb52a6a	-0.35383922
161	0xbdaa11d7	-0.08304184
162	0x3db1c28c	0.08679685
163	0x3eda9553	0.4269205
164	0x3f17914c	0.5920608
165	0xbcc47665	-0.023982236
166	0x3d48f6d6	0.049063526
167	0x3d4238be	0.047417395
168	0xbda99946	-0.08281188
169	0x3db5949b	0.08866235
170	0xbdf82c73	-0.12117853
171	0x3d922ec6	0.071378276
172	0x3eb99dbb	0.3625315
173	0x3e00030f	0.12501167
174	0x3e327587	0.17427646
175	0x3e6921c5	0.22766788
176	0x3e6b3c24	0.2297216
177	0x3d875472	0.066079035
178	0x3e495d3f	0.19664477
179	0x3de1e104	0.110292464
180	0xbe013054	-0.12616092
181	0xbe0d6f8c	-0.13812083
182	0xbe2b9402	-0.16755679
183	0xbc1cf1a2	-0.009579094
184	0x3e6c90f4	0.2310217
185	0x3e525db6	0.2054356
186	0x3e353df8	0.1769942
187	0x3e314276	0.17310509
188	0x3dfd0786	0.123549506
189	0x3e52f780	0.20602226
190	0xbea689ea	-0.32527095
191	0x3c566fdb	0.013088192
192	0xbeae8ea7	-0.3409321
193	0xbef4a938	-0.47785354
194	0xbe8ca192	-0.27467018
195	0x3e591243	0.21198373
196	0xbccf457d	-0.02530169
197	0x3e2d7669	0.16939701
198	0xbc767b4b	-0.015044044
199	0x3d2e9a68	0.042627722
200	0x3c2b0301	0.010437728
201	0x3e0553e0	0.13020277
202	0xbc28dea5	-0.010306989
203	0x3dc17d2f	0.09447705
204	0xbdac2d40	-0.08407068
205	0xbdb45243	-0.08804753
206	0xbd361cd1	-0.044461075
207	0x3df89fbc	0.12139842
208	0xbd5fa050	-0.054596245
209	0xbe174fa5	-0.14776476
210	0xbde36f93	-0.111052655
211	0xbe5fa2e9	-0.21839489
212	0xbc38bd8e	-0.011275662
213	0xbc909479	-0.017648922
214	0xbd82d6ae	-0.06388603
215	0x3dd01820	0.101608515
216	0x3edc00b2	0.4296928
217	0x3ea5077a	0.32232267
218	0xbe300d25	-0.17192514
219	0xbde32ff8	-0.11093134
220	0xbab7fc38	-0.0014036959
221	0xbe58f137	-0.21185766
222	0xbef17552	-0.4715982
223	0xbe445379	-0.19172467
224	0xbe4f7006	-0.20257577
225	0xbe3e329a	-0.1857399
226	0xbe7f4e1f	-0.24932145
227	0x3d683c25	0.056697983
228	0x3e84014c	0.2578224
229	0x3e05f66c	0.13082284
230	0xbd5e17c4	-0.054221883
231	0x3e93434a	0.28762275
232	0xbdc2cdba	-0.095118955
233	0x3cf8ea3e	0.030385133
234	0x3e6f1104	0.23346335
235	0x3efc787e	0.49310678
236	0x3dc46553	0.095896386
237	0x3e0c3f58	0.13696039
238	0x3e4f526a	0.20246282
239	0xbd6b8457	-0.057499256
240	0xbf50351d	-0.81331044
241	0xbe97c8c9	-0.29645374
242	0xbe8d82fa	-0.2763899
243	0x3dfc71f1	0.1232642
244	0x3d2e40d1	0.042542282
245	0x3e17f151	0.14838149
246	0x3dea4191	0.11438287
247	0x3db50e36	0.08840601
248	0x3dbe9196	0.09305112
249	0xbe3baceb	-0.18327682
250	0x3e2c1d81	0.1680813
251	0x3d8987c9	0.06715352
252	0xbe48d024	-0.1961065
253	0xbe87219b	-0.26392826
254	0xbe0622db	-0.13099234
255	0xbe6deeec	-0.23235673

encoder_conv.1.0.bias f4 [8]
0	0x3d06ca68	0.032907873
1	0x3cd8d431	0.026468368
2	0x3cb89781	0.02253318
3	0x3cdd7517	0.027033372
4	0x3e201fb2	0.15637091
5	0x3e00ca3f	0.12577151
6	0x3cb8c64e	0.022555497
7	0xbd08f5b2	-0.03343744

encoder_conv.2.0.weight f4 [16, 8, 3, 3]
0	0x3dbe1d2f	0.0928291
1	0xbe4add81	-0.1981106
2	0x3e8f25be	0.27958483
3	0xbebd34c9	-0.36954334
4	0xbdb5fbdf	-0.08885931
5	0x3f0efb9d	0.5585268
6	0xbe80e8ef	-0.25177714
7	0x3b8a3eaf	0.0042188982
8	0xbddf12fe	-0.10892294
9	0x3da20589	0.07911212
10	0xbe8a2274	-0.2697941
11	0x3e889476	0.26675767
12	0x3e34bc1a	0.1764988
13	0xbe4681b1	-0.19385411
14	0x3e9bc8fb	0.30426773
15	0xbd6eecc9	-0.058331285
16	0xbe9658f4	-0.2936474
17	0x3dbff8bb	0.093736134
18	0xbdbc2ba8	-0.09188014
19	0xbe9ee878	-0.31036735
20	0x3eaea8af	0.3411307
21	0xbee3dc0e	-0.44503826
22	0xbe2bea5e	-0.16788623
23	0x3e3e3331	0.18574215
24	0xbeb45433	-0.3522049
25	0xbcd6c5cf	-0.02621737
26	0x3e8fb146	0.28064936
27	0x3e606c6e	0.21916363
28	0xbe3d0e5f	-0.18462513
29	0x3e3f85d6	0.18703398
30	0xbdda661e	-0.106640086
31	0xbeb4ac28	-0.35287595
32	0x3edb53e5	0.42837444
33	0xbe81934c	-0.2530769
34	0x3e01cda4	0.12676102
35	0x3e39073b	0.18069164
36	0xbe6489e6	-0.22318229
37	0x3dc03738	0.09385532
38	0xbe76c635	-0.24099047
39	0xbc0a4168	-0.008438446
40	0x3e69d423	0.2283483
41	0xbe54236a	-0.20716634
42	0x3f007aac	0.5018718
43	0x3de51bfc	0.11186978
44	0x3dc868d2	0.09785618
45	0xbd8a8dd9	-0.067653365
46	0x3e0f998c	0.14023417
47	0x3e9d3d56	0.30710858
48	0x3e736703	0.23769765
49	0x3eb0f16b	0.34559187
50	0x3d6fc4bc	0.05853723
51	0x3e2323b7	0.15931593
52	0x3eeef344	0.46669972
53	0x3f0fedea	0.56222403
54	0x3e91b67f	0.28459546
55	0x3b8411ca	0.004030441
56	0xbd2c68a5	-0.042091984
57	0x3daf0602	0.08546068
58	0xbd803f83	-0.06262114
59	0xba9126b3	-0.0011074155
60	0x3e5a9579	0.21346082
61	0x3d97ae60	0.07406306
62	0xbdfec57f	-0.12440013
63	0xbb8c8ecf	-0.004289485
64	0xbde7b1fc	-0.11313245
65	0x3dc8ae48	0.097988665
66	0xbec96a39	-0.39338854
67	0xbe1d5f31	-0.15368344
68	0x3f2a7af8	0.66593885
69	0xbe377a75	-0.17917807
70	0xbe00b6f5	-0.12569793
71	0x3e786bce	0.24259874
72	0xbc5cd568	-0.013478614
73	0xbe3c5d81	-0.18395044
74	0xbeb62b5b	-0.35579953
75	0xbe0c889d	-0.13723989
76	0x3e53eca1	0.20695736
77	0x3e832f34	0.2562195
78	0xbced5f33	-0.028976059
79	0x3ccdf072	0.025139067
80	0xbe5380bd	-0.20654579
81	0x3e381f6f	0.17980741
82	0x3e5f865c	0.21828598
83	0xbece5452	-0.40298706
84	0x3d530031	0.051513854
85	0x3f672905	0.90296966
86	0xbf7954d1	-0.97395045
87	0xbf212d64	-0.62959886
88	0x3e80ca19	0.25154188
89	0xbe09ffe5	-0.13476522
90	0xbe5fb21d	-0.21845289
91	0xbe1aba6a	-0.15110174
92	0x3e5e7f6d	0.21728297
93	0x3e0bbaeb	0.13645522
94	0xbe003fc3	-0.12524323
95	0xbc82d567	-0.015970899
96	0xbd3f5e59	-0.046720836
97	0xbe72dd98	-0.23717344
98	0x3e2bbe6e	0.16771862
99	0xbdfce804	-0.12348941
100	0x3de92992	0.11384882
101	0xbe52b8d7	-0.20578323
102	0x3ebd1153	0.3692728
103	0x3ea97a8f	0.33101317
104	0x3e95f2df	0.29286858
105	0xbf408cc1	-0.75214773
106	0xbe78cdcc	-0.24297255
107	0xbf533c30	-0.82513714
108	0x3ea94a6a	0.33064586
109	0x3d3507a6	0.044196747
110	0x3eada643	0.3391591
111	0x3ebfd1ab	0.3746465
112	0x3e09a45f	0.13441609
113	0xbe10a72e	-0.14126274
114	0x3f39efcf	0.72631544
115	0x3df7b25b	0.120945655
116	0x3ef4aab9	0.477865
117	0x3e585cf4	0.21129209
118	0xbd49adf9	-0.04923818
119	0x3d8261cf	0.06366312
120	0x3dbce1a7	0.09222727
121	0xbf177fd8	-0.5917945
122	0xbe35e641	-0.17763616
123	0x3ecacb13	0.39608058
124	0x3f0ed8ca	0.55799544
125	0x3e1c6229	0.1527182
126	0xbe280ec1	-0.16411878
127	0x3e3873ff	0.18012999
128	0xbef30ba4	-0.4746982
129	0x3d8ab8f7	0.067735605
130	0x3f1eb79d	0.6199892
131	0x3f586b97	0.8453917
132	0xbf06e5ed	-0.5269459
133	0xbf4656cc	-0.7747619
134	0xbec6db85	-0.38839355
135	0xbd8a78b1	-0.06761301
136	0xbd5934af	-0.05302876
137	0xbf4ffa36	-0.81241167
138	0x3e86b410	0.26309252
139	0x3bf80ebb	0.0075701154
140	0xbef64cc1	-0.48105434
141	0xbe3acde4	-0.18242604
142	0x3eaa3f74	0.33251536
143	0x3df7a8e1	0.12092758
144	0x3d3a5a7d	0.045496453
145	0xbda4cd5a	-0.0804698
146	0xbed03841	-0.40667918
147	0xbf02fe4a	-0.51169264
148	0xbdb3a5eb	-0.08771881
149	0x3f05d459	0.5227714
150	0xbe30e857	-0.1727613
151	0x3e976e26	0.29576224
152	0x3ddbb2a8	0.10727435
153	0x3e783d01	0.24242021
154	0x3e80432a	0.25051242
155	0xbe7a9391	-0.24470355
156	0xbe1c3aac	-0.15256757
157	0x3ea4f303	0.32216653
158	0xbe1ede7c	-0.15514559
159	0xbd5ffe75	-0.05468603
160	0xbe231e37	-0.15929495
161	0xbf11fde8	-0.57028055
162	0x3e56620d	0.20935841
163	0x3e9b614e	0.30347675
164	0x3e7fc8d1	0.24978949
165	0x3de08adf	0.109639876
166	0x3f004941	0.50111777
167	0xbd62b278	-0.055345982
168	0x3d5798cf	0.052635964
169	0x3ea6f6f8	0.32610297
170	0x3ce77bc3	0.028257256
171	0xbe32c2cd	-0.17457123
172	0xbcbef704	-0.023311146
173	0x3e8d13de	0.2755422
174	0xbe9c53aa	-0.3053258
175	0xbd9113ae	-0.07083832
176	0xbed6f63b	-0.41984734
177	0xbd3d0d41	-0.046155218
178	0x3e564eeb	0.20928542
179	0x3ddc1b83	0.10747435
180	0xbe821ca1	-0.25412467
181	0x3e9c7a62	0.3056212
182	0xbe8e9e54	-0.2785517
183	0x3e4d6044	0.20056254
184	0xbe8ff167	-0.28113863
185	0xbf12231a	-0.5708481
186	0xbc202caa	-0.009776274
187	0xbf50f26a	-0.81619895
188	0x3ea05267	0.31312868
189	0x3e81e24b	0.2536796
190	0xbd9de5d9	-0.077098556
191	0xbea37ab9	-0.31929567
192	0x3f37a8a2	0.7174169
193	0xbea948bb	-0.330633
194	0xbf40db94	-0.7533505
195	0xbf2531c7	-0.6452908
196	0xbf985220	-1.1900063
197	0xbeb8597c	-0.3600577
198	0xbe2711e2	-0.16315416
199	0xbdec45e7	-0.1153677
200	0x3e840742	0.25786787
201	0xbdcdfea1	-0.10058332
202	0x3e147d52	0.14500931
203	0x3df2a039	0.11846966
204	0xbe22f743	-0.15914635
205	0x3e80b504	0.25138104
206	0x3d7cc484	0.06171085
207	0xbc84d14d	-0.016213084
208	0xbe3bd37e	-0.18342397
209	0xbe9a52f6	-0.3014142
210	0xbeef13bb	-0.4669474
211	0xbe139061	-0.14410545
212	0xbe4552ef	-0.19269918
213	0xbd9afd88	-0.075678885
214	0xbe42f0a1	-0.19037105
215	0xbea0d881	-0.3141518
216	0x3e3f6f13	0.18694715
217	0x3dae2cca	0.085046366
218	0xbdc168a0	-0.09443784
219	0x3df53753	0.11973443
220	0xbe7254b3	-0.23665123
221	0x3c9e9c0b	0.019361516
222	0xbe4c69ce	-0.19962236
223	0xbe13d769	-0.14437641
224	0xbcc06172	-0.023483966
225	0x3e52d428	0.20588744
226	0x3ecab922	0.3959437
227	0x3e1cc923	0.15311103
228	0xbe4e0293	-0.2011817
229	0x3e375a45	0.17905529
230	0x3ea0232e	0.3127684
231	0xbc8617a4	-0.016368695
232	0xbdfc6589	-0.12324054
233	0xbed4ab20	-0.41536808
234	0x3e27206b	0.1632096
235	0xbe0cafae	-0.13738891
236	0x3f04f357	0.5193381
237	0x3c35c053	0.011093217
238	0x3e3056ce	0.17220613
239	0x3e077ad1	0.13230444
240	0xbdb029ad	-0.08601699
241	0xbe0127fb	-0.12612908
242	0x3e94c11f	0.2905359
243	0xbe4f0a02	-0.20218661
244	0xbb5d4e7c	-0.0033768704
245	0x3e9062f8	0.28200507
246	0xbe8b8cc7	-0.27255842
247	0xbe4b2636	-0.19838795
248	0x3e3af38f	0.18256973
249	0xbcf3b95e	-0.029751476
250	0xbec1442f	-0.37747332
251	0xbd87d7cf	-0.06632959
252	0x3e928350	0.28615808
253	0x3e283854	0.16427737
254	0xbe151d5f	-0.14561985
255	0x3effcf27	0.49962732

encoder_conv.2.0.bias f4 [16]
0	0xbd99a242	-0.07501651
1	0xbe04216b	-0.12903373
2	0x3eb7ac8d	0.35873833
3	0x3d876e80	0.06612873
4	0xbe34e23c	-0.17664427
5	0xbec4c396	-0.3843047
6	0x3e27c3ee	0.16383335
7	0xbcaf41ce	-0.021393683
8	0xbe019e7f	-0.12658118
9	0x3e2034a7	0.15645085
10	0x3cc81c2f	0.024427501
11	0xbd37bc7c	-0.044857487
12	0x3d23d030	0.039993465
13	0xbdfd9a74	-0.12382975
14	0xbdf503a3	-0.11963584
15	0xbd8e05a7	-0.06934672

encoder_conv.3.0.weight f4 [16, 16, 3, 3]
0	0x3e56f211	0.20990779
1	0x3e752fcc	0.23944014
2	0xbe1b0261	-0.15137626
3	0x3f1f5b60	0.622488
4	0x3e1cb0bf	0.15301798
5	0xbee374f3	-0.44425163
6	0xbd0724e1	-0.032994155
7	0xbe35962c	-0.17733067
8	0xbdd5a1fe	-0.10431288
9	0xbe5e8808	-0.2173158
10	0xbe36632d	-0.1781127
11	0x3ee88665	0.45415035
12	0xbe9576c3	-0.2919217
13	0xbe10b4b2	-0.1413143
14	0x3e4f6131	0.2025192
15	0xbe34d4f4	-0.1765936
16	0x3d516547	0.051121976
17	0x3ca15b72	0.019696925
18	0xbe37862d	-0.17922278
19	0xbe238f63	-0.15972666
20	0x3eb954ba	0.36197454
21	0xbd445bdd	-0.04793917
22	0x3e043d46	0.12913999
23	0x3f1ee948	0.6207471
24	0x3ed63fc5	0.41845527
25	0x3e552f1e	0.20818755
26	0x3d64e6e3	0.055884253
27	0x3df50f00	0.11965752
28	0xbea2d0f1	-0.31800035
29	0x3ea793c9	0.3272994
30	0xbd9a296b	-0.07527431
31	0xbf004ef4	-0.5012047
32	0x3e4bbe08	0.1989671
33	0xbe2541e5	-0.16138418
34	0xbe7a4f66	-0.2444435
35	0x3b7f50ff	0.003895819
36	0x3d8d1f26	0.06890707
37	0xbdc5b1f8	-0.096530855
38	0xbe74aaef	-0.23893331
39	0x3d9f320d	0.07773218
40	0x3e9cfac0	0.30660057
41	0x3de9896f	0.114031665
42	0x3dedbfae	0.116088256
43	0x3eeec362	0.4663344
44	0x3eadbccb	0.339331
45	0xbe098ffb	-0.1343383
46	0xbdb3c4d3	-0.087777756
47	0x3d22092f	0.03955954
48	0xbe61db40	-0.22056293
49	0xbeb3ecf2	-0.35141712
50	0xbe1a1466	-0.15046844
51	0xbeed3c99	-0.46335295
52	0xbf21c585	-0.63192016
53	0xbe410081	-0.18847848
54	0xbd916ad1	-0.07100452
55	0xbd15a83b	-0.03653739
56	0x3dc253d4	0.09488645
57	0xbe9523bf	-0.29128835
58	0x3e60b298	0.21943128
59	0x3e828a83	0.254963
60	0x3e2381e7	0.15967523
61	0x3e6f3d28	0.23363173
62	0x3dbbea3c	0.09175536
63	0xbe8294b4	-0.25504076
64	0x3dc8d0dd	0.098054625
65	0x3e07f510	0.13277078
66	0x3e0f200a	0.13977066
67	0x3eff8492	0.4990583
68	0x3eacfef1	0.33788255
69	0x3e922018	0.2854011
70	0x3e00be9a	0.12572709
71	0xbe6fff94	-0.23437339
72	0x3e76d932	0.24106291
73	0xbc8a623c	-0.016892545
74	0xbe5d01f0	-0.2158277
75	0x3eb2f46c	0.34952104
76	0x3e3933d5	0.18086179
77	0xbeb13a11	-0.34614614
78	0xbea48a48	-0.3213675
79	0xbe385933	-0.18002777
80	0x3e70d2a5	0.23517855
81	0x3e665947	0.22494994
82	0xbe4b35ed	-0.1984479
83	0xbe5f42bc	-0.21802801
84	0x3ca07517	0.019587083
85	0x3cd2802c	0.025695883
86	0xbe59fcf8	-0.21287906
87	0x3db18ac2	0.08669044
88	0x3ddfc14d	0.10925541
89	0xbd20ac7c	-0.039226994
90	0xbe6cd6de	-0.2312884
91	0xbdfe3708	-0.1241284
92	0x3dad347e	0.08457278
93	0xbe59777d	-0.21236987
94	0x3e51cc63	0.20488124
95	0x3e76ed70	0.24114013
96	0x3e351af5	0.17686065
97	0x3f3893a8	0.72100306
98	0xbdd617de	-0.10453771
99	0xbd9fc9c0	-0.07802153
100	0xbd9e7986	-0.077380225
101	0x3d41b520	0.047291875
102	0xbe44c944	-0.19217402
103	0x3e52a92f	0.20572351
104	0xbb7cd3b0	-0.0038578324
105	0x3d1c81d9	0.03820977
106	0x3db93a79	0.09044356
107	0x3e0696fa	0.1314353
108	0x3d206722	0.039160855
109	0xbb2d89cc	-0.0026479838
110	0x3cc889d2	0.02447978
111	0xbec9a798	-0.39385676
112	0x3a8bc57d	0.0010663714
113	0x3cb636d7	0.022242947
114	0xbdd03802	-0.10166933
115	0x3ed8094f	0.42194602
116	0x3d900fa5	0.07034234
117	0x3e607da4	0.21922928
118	0xbe75ef9b	-0.24017183
119	0xbd0e6f68	-0.034774214
120	0x3e95d282	0.29262167
121	0xbe325298	-0.1741432
122	0xbdd2c16e	-0.102908
123	0xbde3d193	-0.111239575
124	0x3e3bb23c	0.1832971
125	0xbe1e89a1	-0.15482189
126	0x3e7d619d	0.24744268
127	0xbe61b8d6	-0.22043166
128	0xbeb008ec	-0.34381807
129	0x3d93866c	0.07203373
130	0xbe4e0849	-0.20120348
131	0x3cd967be	0.026538726
132	0x3e62a463	0.22133021
133	0xbe1d7737	-0.15377508
134	0x3e1927b8	0.14956558
135	0xbd1d6fec	-0.038436815
136	0xbedc7b00	-0.43062592
137	0xbd2b9506	-0.041890167
138	0x3c7d45b4	0.015458513
139	0xbc4e4698	-0.012590073
140	0x3e10bd4f	0.14134715
141	0x3f036c8a	0.5133749
142	0x3dc08f9f	0.094023935
143	0x3ce799d3	0.028271591
144	0x3e231205	0.15924843
145	0xbe8d40a1	-0.2758837
146	0xbdc9b218	-0.09848422
147	0xbe9f4227	-0.31105158
148	0xbcadc399	-0.021211432
149	0x3f05ef92	0.5231868
150	0xbddf5dba	-0.10906549
151	0xbe802ce9	-0.25034264
152	0x3ecc7c06	0.39938372
153	0x3de78bae	0.11305939
154	0xbca85cb3	-0.020552015
155	0x3ebde3ce	0.37087864
156	0x3ece06b3	0.40239486
157	0x3ec73e36	0.3891465
158	0x3ead69aa	0.33869678
159	0xbe653ea0	-0.22387171
160	0xbeb35f18	-0.35033488
161	0xbd27365b	-0.04082332
162	0x3d14bf9e	0.036315553
163	0x3ea6750a	0.3251117
164	0x3d9430d2	0.07235874
165	0x3e3aa453	0.18226747
166	0x3e9ed960	0.3102522
167	0x3eadc6ac	0.33940637
168	0x3cff0a58	0.031132862
169	0xbf0fdcc4	-0.56196237
170	0xbcdebaa3	-0.027188605
171	0x3df4ec65	0.11959151
172	0x3ed32a04	0.41242993
173	0xbe266ace	-0.1625168
174	0x3d75fa9d	0.060053457
175	0x3e9bf6f0	0.30461836
176	0xbd09f3fc	-0.033679947
177	0x3e76fc8e	0.2411978
178	0x3ea83c96	0.32858723
179	0x3e1a3ffa	0.15063468
180	0x3c15e181	0.009148003
181	0xbdfa586b	-0.12223896
182	0x3dd92867	0.10603409
183	0xbf29c467	-0.6631531
184	0x3e1a600a	0.15075698
185	0x3e23bb31	0.15989377
186	0xbdb29872	-0.08720483
187	0x3eceaeec	0.4036783
188	0x3d88e380	0.06684017
189	0xbe9e74a5	-0.30948368
190	0xbf1080af	-0.56446356
191	0xbc6b15a2	-0.014348419
192	0x3e291850	0.1651318
193	0xbe7c4120	-0.24634218
194	0xbd8815ec	-0.06644806
195	0x3e004e98	0.12529981
196	0x3bb6e2da	0.005581242
197	0xbded794d	-0.11595402
198	0xbeb8f6a0	-0.3612566
199	0xbeee3e4e	-0.4653191
200	0xbdbea7e8	-0.09309369
201	0xbe176739	-0.1478547
202	0xbdd62c28	-0.10457641
203	0xbf12aff5	-0.5729974
204	0x3e8d9eae	0.27660125
205	0x3eac39c0	0.3363781
206	0xbdb99787	-0.09062105
207	0x3f013f93	0.5048763
208	0xbebd1ae9	-0.36934593
209	0x3e8d179a	0.2755707
210	0xbcdcaa5d	-0.026936704
211	0xbe92eeab	-0.28697714
212	0x3e12f30e	0.1435053
213	0x3e79423c	0.24341673
214	0xbdb2049a	-0.08692284
215	0xbd927966	-0.07152061
216	0xbe22414a	-0.15845218
217	0xbe8be4a6	-0.27322882
218	0x3e1cc72c	0.15310353
219	0xbf42a440	-0.76031876
220	0xbe0cb6d2	-0.13741615
221	0x3eed2794	0.46319258
222	0xbec7b9c6	-0.3900892
223	0xbee903a3	-0.45510587
224	0xbe0d628f	-0.13807128
225	0x3d581bcb	0.05276088
226	0xbd393292	-0.045214243
227	0xbed5fb75	-0.4179341
228	0xbddb5f39	-0.10711522
229	0x3e824311	0.25441793
230	0xbd2ca74d	-0.042151738
231	0x3efa2a22	0.4886027
232	0x3cc2ba91	0.023770602
233	0xbec38c8c	-0.38193166
234	0xbea5bb29	-0.32369354
235	0xbe17b9ed	-0.14817019
236	0xbf0e5d3a	-0.55611
237	0x3f028dfb	0.50997895
238	0xbe5daac1	-0.21647169
239	0x3d44a840	0.04801202
240	0x3d95a4d2	0.073068276
241	0x3e9d9943	0.30780992
242	0xbdc9625a	-0.09833212
243	0x3eddca94	0.43318617
244	0xbe94b669	-0.29045418
245	0x3de447a8	0.1114648
246	0xbdf60f17	-0.12014597
247	0xbeb8c3e1	-0.36086944
248	0x3e8f6b13	0.2801138
249	0x3e42f231	0.19037701
250	0xbe4f3704	-0.2023583
251	0x3e2c24e0	0.16810942
252	0xbdbf3681	-0.09336568
253	0xbe945b97	-0.28976128
254	0x3c37d840	0.011220992
255	0x3d194a6b	0.037424486

encoder_conv.3.0.bias f4 [16]
0	0x3ea413ee	0.32046455
1	0x3eb49f7e	0.35277933
2	0x3f3ffae1	0.74992186
3	0xbecee1a6	-0.4040653
4	0xbecbcbc0	-0.39803886
5	0x3f3b5f47	0.73192257
6	0xbd82b92e	-0.063829765
7	0x3e5d9f9c	0.21642917
8	0xbf0a6198	-0.54055166
9	0xbe627a12	-0.22116879
10	0x3f1dc6b8	0.61631346
11	0x3f2647d4	0.6495335
12	0x3eda3ff3	0.42626914
13	0x3f17e03d	0.59326535
14	0x3ef568c5	0.47931495
15	0x3e94ab27	0.2903683

encoder_conv.4.0.weight f4 [32, 16, 1, 1]
0	0x3c8241bf	0.01590049
1	0x3e8afb28	0.27144742
2	0x3c04c8bc	0.008104499
3	0x3f6bace5	0.9206069
4	0x3e59b314	0.21259719
5	0x3ec1dec9	0.37865284
6	0x3f076dc5	0.5290187
7	0x3e1853d4	0.14875728
8	0xbeef171a	-0.46697313
9	0x3db76e82	0.089566246
10	0xbe156711	-0.14590098
11	0x3f08b012	0.5339366
12	0xbbac8fbd	-0.0052661584
13	0xbe105e4d	-0.14098473
14	0x3dcc690e	0.09980975
15	0xbe1f4cd0	-0.15556645
16	0xbc91a316	-0.01777796
17	0xbda5f3ed	-0.08103166
18	0xbe3987ff	-0.18118285
19	0x3ecffe31	0.4062362
20	0x3e0b55a2	0.13606885
21	0x3d716f18	0.058943838
22	0xbdce3695	-0.100690044
23	0x3f32330c	0.6960914
24	0xbf0227fb	-0.50842255
25	0x3e9959d6	0.29951352
26	0x3dffd367	0.12491494
27	0xbf140b5b	-0.5782983
28	0x3dd39f58	0.10333127
29	0xbe66a9b4	-0.22525674
30	0xbe882e24	-0.26597703
31	0x3e092ec0	0.1339674
32	0x3e461bec	0.19346589
33	0x3e86850c	0.26273382
34	0x3de77cfd	0.113031365
35	0x3f078b5d	0.52947026
36	0xbeb3bc2d	-0.35104504
37	0x3e262b6f	0.16227506
38	0xbdbe4497	-0.09290426
39	0xbea85c6a	-0.32883006
40	0x3f04a84f	0.5181932
41	0x3f3c347f	0.735176
42	0x3e2e89ef	0.17044805
43	0xbe91c36c	-0.28469408
44	0xbe87cf5b	-0.26525387
45	0xbbe27802	-0.0069112787
46	0xbe5bf2bc	-0.21479315
47	0x3e54db3e	0.2078676
48	0xbe3e93f0	-0.18611121
49	0x3d8b9e30	0.06817281
50	0xbdd61256	-0.10452716
51	0xbf0d24c5	-0.5513423
52	0xbb8f0525	-0.004364627
53	0x3ee5baf1	0.44869187
54	0xbd893915	-0.06700341
55	0xbd228396	-0.03967627
56	0x3f61136d	0.87920266
57	0x3dbec6b9	0.09315247
58	0x3e026271	0.12732865
59	0x3e901f4e	0.28148884
60	0xbd9a1edf	-0.075254194
61	0x3e8f0067	0.27929994
62	0x3e26fab7	0.16306578
63	0x3cc134b4	0.023584701
64	0x3e267ecb	0.16259305
65	0x3e95db80	0.29269028
66	0xbd8d8e9b	-0.069119655
67	0xbdab33d1	-0.083594926
68	0x3e461359	0.19343318
69	0xbecf5fce	-0.4050278
70	0x3f2c13a7	0.6721749
71	0xbcab2db4	-0.020895816
72	0xbf04f8d9	-0.5194221
73	0x3f69ea22	0.91372883
74	0x3e92a629	0.28642395
75	0x3f008e8a	0.502175
76	0xbe2b8ad2	-0.16752174
77	0x3ada9102	0.0016675296
78	0x3e88ae55	0.26695505
79	0xbe3a680c	-0.18203753
80	0xbecf21e2	-0.40455538
81	0xbe53e11b	-0.2069134
82	0x3ef01b68	0.4689591
83	0x3e217ac3	0.15769486
84	0x3e9f2892	0.3108564
85	0xbd0b2323	-0.033969056
86	0xbcc8b6a6	-0.024501156
87	0xbe4a7d86	-0.19774446
88	0xbcc855ed	-0.024455035
89	0x3e8ea22d	0.27858105
90	0x3ce0fc10	0.027463943
91	0xbeb8a971	-0.36066774
92	0x3eb4623f	0.35231206
93	0xbed52836	-0.4163224
94	0x3e5a2b5d	0.21305604
95	0xbe22ec1a	-0.15910378
96	0xbdbe8f9b	-0.09304734
97	0x3d444e96	0.047926508
98	0x3d8da094	0.069153935
99	0x3ea2d076	0.31799668
100	0xbd5ebefe	-0.054381363
101	0xbe82ebd0	-0.25570536
102	0xbde8d8c1	-0.113694675
103	0x3eb0e417	0.3454902
104	0x3c1a8173	0.009430277
105	0x3df41a43	0.119190715
106	0xbee9415c	-0.45557678
107	0xbe575f7e	-0.21032521
108	0x3ddce350	0.10785544
109	0x3ed71cc2	0.42014128
110	0x3ecd9b3f	0.40157506
111	0xbda60f9a	-0.081084445
112	0x3ef8e7d3	0.48614368
113	0x3e00419f	0.12525032
114	0xbea4401f	-0.3208017
115	0x3c76d522	0.015065463
116	0x3e918be1	0.28427032
117	0x3d3b5747	0.04573753
118	0xbea23332	-0.31679684
119	0x3e91ece8	0.28501058
120	0x3eb85805	0.36004654
121	0xbefdf0c1	-0.49597743
122	0x3e412bc5	0.18864353
123	0x3cb0dd27	0.021589829
124	0x3d7ded97	0.06199416
125	0xbe5e72a2	-0.21723416
126	0xbd1105db	-0.035405975
127	0xbeaf2b02	-0.342125
128	0xbd60456c	-0.054753706
129	0x3e698321	0.22803928
130	0x3d652f9b	0.055953603
131	0xbe96a58d	-0.2942318
132	0x3e9d4e83	0.30723962
133	0xbdfad44f	-0.12247526
134	0x3d58310c	0.05278115
135	0xbed6f55c	-0.4198407
136	0xbc4fe20b	-0.01268817
137	0xbe0b9915	-0.13632615
138	0xbd150773	-0.036384057
139	0x3e748c44	0.23881632
140	0x3d0db19b	0.034593206
141	0x3c4e6a29	0.012598553
142	0x3e2cfba9	0.16892876
143	0x3e8d2323	0.2756587
144	0xbe432fd6	-0.19061217
145	0xbeb4dde2	-0.35325533
146	0x3e600b87	0.21879397
147	0xbe4c3b6a	-0.1994454
148	0xbebf4d44	-0.37363636
149	0x3ecc388a	0.39886886
150	0xbf72175f	-0.9456691
151	0x3dc2bbb0	0.09508455
152	0xbc8689f1	-0.016423197
153	0xbf23b2c6	-0.6394466
154	0x3df23acc	0.11827621
155	0x3df04c1b	0.11733266
156	0x3deaa438	0.114571035
157	0x3d585c53	0.052822422
158	0xbd9aa306	-0.075506255
159	0xbdee98c0	-0.116502285
160	0x3e7d4f66	0.2473732
161	0xbe80f48c	-0.25186574
162	0x3d30bcad	0.043148685
163	0x3d3e9d3b	0.046536665
164	0xbd579c01	-0.05263901
165	0xbd70ae6d	-0.058760095
166	0xbeb22aa8	-0.3479817
167	0xbed46c6f	-0.41488978
168	0xbe129ffd	-0.14318843
169	0xbe8f1ec2	-0.27953154
170	0xbec02b17	-0.37532875
171	0x3ec71ca7	0.38889048
172	0xbdf52b5f	-0.11971163
173	0xbd93c89b	-0.07215997
174	0x3e26bd7e	0.16283223
175	0x3e42c3ef	0.19020055
176	0xbec38a6a	-0.3819154
177	0xbeb868ee	-0.36017555
178	0x3e8f4801	0.27984622
179	0x3eb82132	0.35962826
180	0x3e4ccc29	0.19999756
181	0xbe91b1ca	-0.28455955
182	0x3d805af6	0.062673494
183	0xbeb2cdf8	-0.34922767
184	0x3f04ae5a	0.5182854
185	0xbc843a14	-0.016140975
186	0xbe3cc687	-0.18435107
187	0x3d8f176e	0.06986891
188	0x3e94f7d4	0.29095328
189	0x3ea31ecd	0.31859437
190	0x3e83cd55	0.25742593
191	0xbec27018	-0.37976146
192	0x3e8cc0ca	0.27490836
193	0xbc8d58ce	-0.01725426
194	0xbd65b550	-0.056081116
195	0xbdd7aaa3	-0.10530593
196	0x3d3254d5	0.043537933
197	0xbb298176	-0.0025864518
198	0xbd1bda65	-0.038050074
199	0x3dbc4aca	0.091939524
200	0xbeaab069	-0.33337715
201	0x3d523f5e	0.051329963
202	0x3e0d4b81	0.13798334
203	0x3d27d192	0.040971346
204	0x3ec1d353	0.3785654
205	0x3cb89cc9	0.022535698
206	0xbd8dc094	-0.06921497
207	0x3e7dd465	0.24788053
208	0x3cd96db1	0.026541563
209	0x3e1c2bfd	0.15251155
210	0x3e4b06d5	0.19826825
211	0xbd970164	-0.07373312
212	0xbed1153e	-0.4083652
213	0x3ec9bf35	0.39403692
214	0xbea4c310	-0.3218007
215	0x3f18818c	0.5957267
216	0xbe96f240	-0.29481697
217	0xbf29419c	-0.66115737
218	0x3edbbf77	0.42919514
219	0xbddfbdaf	-0.10924851
220	0x3dddc227	0.10828047
221	0x3d33de82	0.04391337
222	0xbde17dd9	-0.11010332
223	0xbeab0af4	-0.33406794
224	0x3e047c13	0.12937956
225	0xbe536b53	-0.2064641
226	0xbeef7dec	-0.46775758
227	0xbeb27a41	-0.34858897
228	0x3e9b6893	0.3035322
229	0x3ea7c438	0.3276689
230	0x3eadc86e	0.33941978
231	0x3d5dbf12	0.054137297
232	0x3f21242c	0.6294582
233	0x3f446c7f	0.7672805
234	0xbe6a667a	-0.22890654
235	0xbd8b483f	-0.06800889
236	0x3dd5d4e5	0.10440997
237	0xbe914338	-0.28371596
238	0x3e326e5a	0.17424908
239	0x3daaa543	0.083323024
240	0x3d571991	0.052514616
241	0x3deb96dd	0.11503384
242	0xbe3250b8	-0.17413604
243	0xbe097d61	-0.13426735
244	0xbc76cc6d	-0.015063387
245	0x3ca26db0	0.019827694
246	0x3ecfeac8	0.4060881
247	0x3e8d2ab1	0.27571633
248	0xbdc57d39	-0.09643025
249	0xbe8236be	-0.2543239
250	0xbe5d8ef9	-0.21636571
251	0x3e39cc76	0.18144402
252	0x3ce80ab0	0.028325409
253	0xbeac418f	-0.33643767
254	0xbe0eb013	-0.13934354
255	0x3e0b0a54	0.13578159

encoder_conv.4.0.bias f4 [32]
0	0xbf0e5d7f	-0.55611414
1	0x3dfa2385	0.12213806
2	0x3e18d781	0.14925958
3	0x3cdcab27	0.02693708
4	0xbeb3a941	-0.35090068
5	0xbec1ca80	-0.37849808
6	0x3ea10b3a	0.31453878
7	0x3de5dc3d	0.11223648
8	0xbe11ecf2	-0.14250544
9	0xbcf22797	-0.029559894
10	0x3e85b32a	0.26113254
11	0x3dd3b218	0.10336703
12	0xbdd07071	-0.101776965
13	0xbf017811	-0.5057383
14	0xbe856786	-0.26055545
15	0x3eec98c6	0.46210307
16	0x3d436b18	0.047709554
17	0xbdb422b7	-0.08795684
18	0xbea01615	-0.31266847
19	0x3cc75990	0.024334699
20	0xbe5b688f	-0.21426605
21	0xbd8cc485	-0.068734206
22	0xbe93cc82	-0.28866965
23	0xbe487298	-0.19574964
24	0x3dbe8029	0.09301788
25	0x3ef51978	0.47870994
26	0x3eae2766	0.34014434
27	0x3ea3499b	0.31892094
28	0xbe2c472b	-0.16824023
29	0x3d017f9b	0.031615835
30	0xbe996b5f	-0.2996473
31	0x3ea4f97e	0.32221597

encoder_conv.5.0.weight f4 [8, 32, 1, 1]
0	0xbce06306	-0.027390968
1	0xbe1bf081	-0.15228464
2	0xbd5e637b	-0.05429409
3	0xbdf55391	-0.1197883
4	0xbd401964	-0.046899214
5	0x3ceee3b5	0.029161314
6	0xbe180f9d	-0.14849706
7	0x3c2defcb	0.010616253
8	0xbd98c449	-0.074593134
9	0x3d5a9fad	0.053374935
10	0x3ddc60f1	0.107606776
11	0x3b06fd1f	0.002059765
12	0x3ebf1175	0.37318006
13	0xbddcfc4e	-0.10790311
14	0x3d099844	0.033592477
15	0x3d93655b	0.071970664
16	0xbd7e921d	-0.062151063
17	0x3db8f2cd	0.090306856
18	0x3e17ed15	0.14836533
19	0xbda56be6	-0.080772206
20	0x3bd2abe1	0.006429181
21	0xbd2478c2	-0.040154226
22	0xbcc0c835	-0.023532966
23	0xbdf1669b	-0.117871486
24	0xbce6560c	-0.028117202
25	0x3c6b922c	0.014378112
26	0x3d81adf8	0.0633201
27	0xbe1c6d91	-0.15276171
28	0x3e19bc9a	0.15013352
29	0x3c7dad98	0.0154832825
30	0x3d47401e	0.04864513
31	0xbc8942dd	-0.016755516
32	0x3e9ba154	0.3039652
33	0x3d7eef91	0.062240187
34	0xbd906870	-0.0705117
35	0x3d8797f2	0.06620778
36	0x3e5e182d	0.2168891
37	0xbe126e65	-0.14299925
38	0x3dcccd00	0.10000038
39	0x3d92fef5	0.071775354
40	0xbe28f401	-0.1649933
41	0xbde53f22	-0.11193682
42	0xbe862047	-0.261965
43	0x3df84e8b	0.12124356
44	0x3e584fed	0.2112424
45	0xbe7e8287	-0.2485448
46	0xbdabf808	-0.083969176
47	0x3dce602a	0.100769356
48	0x3d6263b8	0.05527088
49	0x3e36a2a6	0.17835483
50	0xbd48b2e3	-0.048998725
51	0x3e0efbb1	0.139632
52	0xbce3169b	-0.02772074
53	0xbdb65d2d	-0.089044906
54	0x3d728b1b	0.059214693
55	0x3cdcb66b	0.026942452
56	0x3a510905	0.00079740613
57	0xbeaa8dea	-0.33311397
58	0x3af81e50	0.0018929932
59	0xbdbc3221	-0.09189249
60	0x3d65c757	0.05609831
61	0xbd932076	-0.07183926
62	0x3d204f44	0.039138094
63	0xbdc22649	-0.094799586
64	0xbd905c43	-0.070488475
65	0x3e4ea693	0.2018073
66	0xbed47fde	-0.41503805
67	0xbeb4981c	-0.352723
68	0xbf082a6e	-0.5318974
69	0x3e9032c2	0.28163725
70	0xbf11e9b8	-0.5699725
71	0xbe9853eb	-0.29751524
72	0xbeee747a	-0.4657324
73	0x3eb36d8f	0.35044524
74	0xbe856401	-0.2605286
75	0x3f82917e	1.0200651
76	0xbee0ca90	-0.43904543
77	0xbeb896ff	-0.360527
78	0x3dae06ca	0.08497389
79	0x3ed00836	0.40631264
80	0x3ed4ab19	0.41536787
81	0xbdb3592e	-0.08757244
82	0x3f4213cc	0.7581146
83	0x3b2a6a79	0.0026003404
84	0x3ef4c715	0.47808138
85	0x3eb05026	0.34436148
86	0xbf375b39	-0.7162357
87	0xbf0f2608	-0.55917406
88	0x3e4c7ca7	0.19969426
89	0xbe55f1ce	-0.20893022
90	0xbbf2014a	-0.0073854076
91	0xbedb22ce	-0.4279999
92	0x3dd6303f	0.10458421
93	0xbd63f3d3	-0.05565245
94	0x3f0e2b62	0.55534947
95	0xbe73ac7f	-0.23796271
96	0xbd0fc354	-0.03509839
97	0x3df3bf15	0.119016804
98	0x3e22757a	0.15865126
99	0x3eb6d07c	0.35705936
100	0xbd7b042b	-0.06128327
101	0x3e5b5dcf	0.21422504
102	0xbd808506	-0.06275372
103	0x3e0472f9	0.12934484
104	0xbe0c5d67	-0.13707505
105	0xbe6b9ab6	-0.23008236
106	0x3e888916	0.26667088
107	0xbda8dddd	-0.08245442
108	0xbe0d0d91	-0.13774706
109	0xbdf97d4e	-0.12182103
110	0xbcf8c4a5	-0.030367205
111	0xbce89adc	-0.028394155
112	0x3ca4a612	0.02009872
113	0xbee23623	-0.44181928
114	0xbae7143d	-0.0017629933
115	0x3d148354	0.036258057
116	0x3d423cd4	0.04742129
117	0x3d968248	0.07349068
118	0xbe4133f5	-0.18867476
119	0x3c8cccc2	0.01718748
120	0xbe646b7d	-0.22306629
121	0xbc1a0ad6	-0.009401998
122	0x3ca6cbb2	0.020360801
123	0x3e431d7f	0.1905422
124	0x3cd04896	0.025425237
125	0xbc7fd52f	-0.015614792
126	0x3d8ef6a6	0.06980638
127	0x3e938f3f	0.28820226
128	0x3d24c009	0.0402222
129	0xbdc470ed	-0.095918514
130	0x3d173f4d	0.036925603
131	0x3df9433e	0.121710286
132	0x3d41a016	0.04727181
133	0x3e162e54	0.1466611
134	0x3db9e010	0.0907594
135	0xbd4bac55	-0.049724896
136	0x3e0524aa	0.13002267
137	0x3e172bfb	0.14762871
138	0xbcc222a3	-0.023698157
139	0x3d2dedb8	0.042463034
140	0x3d9ac2e8	0.07556707
141	0x3df30b80	0.11867428
142	0x3c487791	0.012235538
143	0xbc60d33c	-0.013722237
144	0xbd6d4878	-0.05793044
145	0x3de926fc	0.11384389
146	0x3ca47b72	0.020078395
147	0xbdcfc4ff	-0.10144996
148	0x3e2ab936	0.16672215
149	0xbe08fca0	-0.13377619
150	0xbcc7479f	-0.024326144
151	0x3e16af61	0.14715339
152	0xbdd375e8	-0.10325223
153	0xbd170ab6	-0.03687545
154	0x3c19a097	0.0093766665
155	0xbe80ca85	-0.2515451
156	0x3c08f04c	0.0083580725
157	0xbe7f7c64	-0.24949795
158	0x3dc31b87	0.09526735
159	0x3d597cfa	0.053097703
160	0x3e042114	0.12903243
161	0x3e73079b	0.2373337
162	0xbe2bcfd8	-0.16778505
163	0x3e8bdb71	0.27315858
164	0xbd3d0380	-0.046145916
165	0x3f010020	0.50390816
166	0x3ddc761c	0.10764715
167	0x3da89301	0.08231164
168	0xbd000741	-0.031256918
169	0xbe09beb4	-0.13451654
170	0xbdc142ca	-0.09436567
171	0x3dc1eb69	0.09468729
172	0x3d38ec64	0.045147315
173	0xbded5006	-0.11587529
174	0x3e5ef676	0.21773705
175	0x3d90d08b	0.070710264
176	0x3cc90ba2	0.02454168
177	0xbe7b9d54	-0.24571735
178	0xbc11a2cd	-0.008888912
179	0xbba7d5cb	-0.0051219217
180	0xbd8327cd	-0.06404076
181	0x3e4a5c39	0.19761743
182	0x3e490020	0.19628954
183	0xbca125fa	-0.019671429
184	0x3dd4d9ab	0.10393079
185	0xbd9300a9	-0.0717786
186	0x3ce2fcf0	0.0277085
187	0xbd8bc37b	-0.06824394
188	0x3df0390c	0.11729631
189	0x3e0797f1	0.13241555
190	0xbc4787e9	-0.0121784
191	0x398f3a19	0.00027318372
192	0xbdc3392c	-0.09532389
193	0x3e14d10f	0.14532875
194	0xbd6fb7e2	-0.058524974
195	0xbb0c3337	-0.002139283
196	0xbe6cb91e	-0.23117492
197	0xbe81d683	-0.25358972
198	0x3e49409b	0.19653551
199	0x3c315fe7	0.010826088
200	0xbe3f12f0	-0.18659568
201	0xbdb86ace	-0.090047464
202	0xbe3bcd54	-0.18340045
203	0xbccbd1d0	-0.02488032
204	0x3de97579	0.11399359
205	0xbd623770	-0.05522865
206	0xbe66585d	-0.22494645
207	0x3e013f08	0.12621701
208	0x3e93568b	0.28776965
209	0xbc18fcfb	-0.009337659
210	0x3db7c0bc	0.08972308
211	0x3e7c4c5b	0.24638502
212	0x3bc1d30d	0.005915052
213	0xbc85b55b	-0.016321829
214	0xbdb4fbbb	-0.08837076
215	0xbe6237e2	-0.2209163
216	0x3d82e354	0.06391016
217	0xbce11bdb	-0.027479103
218	0xbd8f0115	-0.06982628
219	0xbd5bf273	-0.053698014
220	0xbe4df11d	-0.20111509
221	0xbed629f2	-0.41828877
222	0x3dac1457	0.08402317
223	0xbd1c7a5d	-0.038202632
224	0xbdcaf952	-0.09910835
225	0x3ccac7cf	0.02475348
226	0x3e18cbb5	0.14921458
227	0xbe7fbc7c	-0.24974245
228	0xbeba7df8	-0.36424232
229	0x3ee56a60	0.4480772
230	0xbdf12e11	-0.117763646
231	0xbe327f40	-0.17431355
232	0x3dac3af2	0.084096804
233	0xbe531d2c	-0.20616597
234	0xbd8d5aae	-0.069020614
235	0xbd67052b	-0.056401413
236	0x3df8cf37	0.12148898
237	0x3e92871d	0.28618708
238	0x3ec53cfb	0.38523087
239	0xbea38086	-0.31933993
240	0x3ed3fb76	0.41402787
241	0x3e0a4e5a	0.13506451
242	0xbea7fa8f	-0.3280835
243	0xbda76cdf	-0.081750624
244	0x3e0ef7ea	0.13961759
245	0xbea1a9b8	-0.31574798
246	0x3e5cc1e3	0.21558337
247	0x3b725ff2	0.0036983457
248	0xbfb0c5a7	-1.3810319
249	0xbec860f9	-0.39136484
250	0xbf123832	-0.57117
251	0x3f05a5bf	0.52206033
252	0xbe94257a	-0.28934842
253	0x3e8981bc	0.26856792
254	0x3db84359	0.089972205
255	0x3db16b20	0.086630106

encoder_conv.5.0.bias f4 [8]
0	0x3e4b59a0	0.19858408
1	0x3e20b149	0.15692629
2	0x3d3bc030	0.04583758
3	0x3c95696e	0.01823875
4	0x3d995d89	0.074885435
5	0xbcbf33e4	-0.023340173
6	0x3e123352	0.1427739
7	0x3ee720a5	0.45142093

encoder_dense.0.0.weight f4 [16, 128]
0	0xbe036ccf	-0.12834476
1	0xbe847eed	-0.25878087
2	0x3c04ce92	0.008105891
3	0x3e1512c2	0.14557937
4	0x3dba344a	0.090920046
5	0xbe8dd007	-0.27697775
6	0x3e122285	0.1427098
7	0x3eb1d2d9	0.34731176
8	0xbf0477b2	-0.5174514
9	0xbf0b44f1	-0.5440207
10	0x3e8b1c18	0.2716987
11	0xbea44d25	-0.32090107
12	0x3eb8ba46	0.36079615
13	0xbe738fca	-0.2378532
14	0x3e98fc21	0.2987986
15	0x3e597b27	0.21238385
16	0x3e9c4c95	0.30527177
17	0xbebc010e	-0.36719555
18	0xbef5fc81	-0.48044208
19	0x3c8bf2c3	0.017083531
20	0x3e8ce93d	0.27521697
21	0x3dd12aba	0.102132276
22	0x3d0f2fa7	0.034957554
23	0x3f7105a1	0.94149214
24	0x3f0b745c	0.54474425
25	0xbe246278	-0.16053188
26	0xbd822dd4	-0.06356397
27	0x3ef19294	0.47182143
28	0xbf4a24b9	-0.78962284
29	0xbecbfb56	-0.39840192
30	0xbe8a9e9d	-0.27074137
31	0x3d05113a	0.03248713
32	0x3e6de68b	0.23232476
33	0x3edd6355	0.43239847
34	0xbe9b5cdb	-0.3034428
35	0x3ef475be	0.4774608
36	0x3e875574	0.26432383
37	0x3d399b34	0.04531403
38	0x3c26b088	0.010173924
39	0x3eedf2b3	0.46474227
40	0xbf5cf7bb	-0.86315507
41	0x3e672d5c	0.22575897
42	0xbea065c9	-0.31327656
43	0x3ec4884a	0.3838523
44	0xbfac8618	-1.3478422
45	0xbe14327d	-0.14472385
46	0xbf7c87d3	-0.9864475
47	0xbe9100ea	-0.2832101
48	0xbe97048f	-0.29495665
49	0x3d0c7221	0.03428853
50	0x3e24a8dc	0.1608004
51	0xbf563cb7	-0.83686393
52	0x3dc96ea7	0.098355584
53	0x3dc1746c	0.09446034
54	0xbd222f15	-0.039595682
55	0x3f22e63c	0.6363256
56	0x3e89cdff	0.26914975
57	0xbe769a30	-0.24082255
58	0x3e705c20	0.23472643
59	0x3f0fcae7	0.5616898
60	0x3e77d5cb	0.2420265
61	0x3e014b37	0.12626348
62	0x3d1186bb	0.03552888
63	0xbb0a4230	-0.002109658
64	0x3e5d26a8	0.21596777
65	0xbe023081	-0.12713815
66	0xbcf4fafb	-0.029904833
67	0x3d9d5a2c	0.076832145
68	0x3e78f023	0.24310355
69	0x3ed0f777	0.408138
70	0x3e873e92	0.26414925
71	0xbe56fd42	-0.20995048
72	0x3edd0380	0.43166733
73	0xbe7998f9	-0.2437476
74	0x3e43f92b	0.19138019
75	0x3c99a130	0.018753618
76	0xbea5698c	-0.32307088
77	0xbec78f8d	-0.38976708
78	0xbe07fca5	-0.1327997
79	0x3e71759c	0.2358002
80	0xbd18476a	-0.03717748
81	0x3e567f01	0.20946886
82	0xbe507a99	-0.20359267
83	0x3f4f4588	0.8096547
84	0xbe85a1c9	-0.26099995
85	0x3ec12e18	0.3773048
86	0x3df624e1	0.12018753
87	0x3ea06f72	0.31335026
88	0x3d0c7ff2	0.034301706
89	0x3b51d00e	0.003201488
90	0x3f498cce	0.78730476
91	0xbebf993f	-0.37421605
92	0xbd9b1330	-0.07572019
93	0xbe83558b	-0.25651202
94	0x3dde310e	0.108492
95	0x3e795296	0.2434791
96	0x3d6d1548	0.057881624
97	0xbea836c6	-0.3285429
98	0x3e1aef4c	0.15130347
99	0x3f112bbb	0.5670735
100	0xbe4b9ace	-0.19883272
101	0x3ec06dcd	0.3758377
102	0x3e7d06e7	0.24709664
103	0xbef4cd49	-0.4781287
104	0x3ea6ed87	0.32603094
105	0xbe09a1cb	-0.13440625
106	0x3e1d1656	0.15340552
107	0xbf59862d	-0.8497036
108	0x3f29bd6d	0.66304666
109	0x3e8aeb64	0.27132714
110	0xbce49187	-0.027901424
111	0x3e3a3a8c	0.18186396
112	0xbd880079	-0.06640715
113	0x3d8164ac	0.0631803
114	0xbe9ff25d	-0.31239596
115	0xbeebc7b5	-0.46050802
116	0xbe819436	-0.25308388
117	0xbe81bd74	-0.25339854
118	0x3e8933fe	0.2679748
119	0x3f9686ee	1.1759927
120	0x3ea50ac5	0.3223478
121	0x3d945d23	0.07244327
122	0xbf36492a	-0.7120539
123	0x3dceb87d	0.10093782
124	0xbe35f864	-0.17770535
125	0x3e4ac39b	0.1980118
126	0xbe89134f	-0.26772544
127	0xbef0353a	-0.4691561
128	0x3f0bfd86	0.5468372
129	0x3e49c9d0	0.19705892
130	0x3f178df0	0.59200954
131	0xbf029c36	-0.5101961
132	0x3e5801cd	0.21094437
133	0x3e5aa258	0.21350992
134	0xbd563053	-0.05229218
135	0x3e186885	0.14883621
136	0x3d2f97ad	0.04286926
137	0x3ef08458	0.4697597
138	0x3e24497d	0.16043659
139	0x3ece8b4f	0.4034066
140	0xbe3168b9	-0.17325105
141	0x3e903386	0.2816431
142	0xbeb1ed5f	-0.34751412
143	0x3e5c6cf4	0.21525937
144	0x3baee0f3	0.0053368746
145	0x3d9b7514	0.0759069
146	0x3e96a2b6	0.29421014
147	0xbe24fb3f	-0.16111468
148	0x3d984adb	0.074361525
149	0x3e71f419	0.23628272
150	0x3e56c478	0.20973384
151	0x3ec0f349	0.37685612
152	0xbe8b3c30	-0.27194357
153	0x3e6f0dc7	0.233451
154	0x3eafb8ec	0.34320772
155	0xbed6faf0	-0.41988325
156	0xbe3de259	-0.18543376
157	0xbe8f08d9	-0.27936438
158	0x3e13e87f	0.14444159
159	0xbeed3932	-0.463327
160	0xbec35360	-0.38149548
161	0xbdd58933	-0.10426559
162	0xbe0c3904	-0.13693625
163	0x3ecd8e47	0.40147611
164	0x3e917608	0.28410363
165	0xbdb1e135	-0.08685533
166	0xbcd73aa3	-0.026273077
167	0xbef442ad	-0.4770712
168	0x3e5dc171	0.21655823
169	0xbec9f7d8	-0.39446902
170	0x3ea1f8bf	0.3163509
171	0xbe8a4c9d	-0.27011576
172	0x3f02fbb1	0.511653
173	0xbf1c345f	-0.6101741
174	0x3e8d5b6e	0.27608818
175	0xbe563664	-0.20919186
176	0x3eba24f1	0.3635631
177	0xbd9584b0	-0.07300699
178	0x3e9eb248	0.30995393
179	0x3f2e9f45	0.68211776
180	0xbe1c22d1	-0.15247656
181	0xbe9f9d47	-0.3117468
182	0x3d5a550f	0.053303774
183	0x3fc5343a	1.5406563
184	0xbe1b640b	-0.15174882
185	0x3df7e142	0.121035114
186	0xbdff195a	-0.12456007
187	0xbed046d4	-0.40679038
188	0x3ea9b548	0.3314612
189	0xbd0b7bb9	-0.034053538
190	0x3edfcba4	0.43710053
191	0xbe5fe61e	-0.21865126
192	0x3e54ba8c	0.20774287
193	0x3eb59f8a	0.3547328
194	0x3f815243	1.0103229
195	0x3f2d14eb	0.67610043
196	0x3e886875	0.26642194
197	0x3e1c8a98	0.15287244
198	0xbe76ce91	-0.24102236
199	0xbe7fee1b	-0.24993174
200	0xbed22d70	-0.4105029
201	0xbd503417	-0.050830927
202	0xbe948eb4	-0.29015124
203	0xbe98d963	-0.29853353
204	0xbf0a4151	-0.54005915
205	0x3d764375	0.060122926
206	0x3caec8ec	0.021336041
207	0x3e0ccf96	0.13751063
208	0xbc7c420a	-0.015396604
209	0xbeaf51ed	-0.34242192
210	0xbe840853	-0.257876
211	0x3e9c7c4f	0.3056359
212	0x3d9350c3	0.071931385
213	0x3e4c6126	0.19958934
214	0xbf4ddc8a	-0.8041464
215	0xbefd1f60	-0.49438
216	0x3ea70bd1	0.32626203
217	0x3ea8c5e7	0.32963488
218	0xbf2c054c	-0.6719558
219	0x3f50f42c	0.81622577
220	0xbe971fd7	-0.2951648
221	0xbe88e563	-0.26737508
222	0x3f3924f5	0.72322017
223	0x3dc80261	0.09766079
224	0xbe0b918f	-0.13629745
225	0x3eb1f31d	0.34755793
226	0x3e8fdb0f	0.28096816
227	0x3c7e41f9	0.015518659
228	0xbe06a362	-0.13148263
229	0xbe6a8f35	-0.22906192
230	0xbd93fc17	-0.07225817
231	0xbd8fe150	-0.07025397
232	0x3e3961cf	0.18103717
233	0xbd8c7b82	-0.06859495
234	0xbe936ea8	-0.28795362
235	0x3ee7d736	0.4528138
236	0xbe9ed797	-0.31023857
237	0xbd9477dd	-0.072494246
238	0x3d099ce9	0.033596907
239	0x3f59f0e1	0.8513318
240	0x3bbebaf7	0.005820628
241	0x3e2160d2	0.1575959
242	0xbf363e4f	-0.71188825
243	0xbe8daa55	-0.27669016
244	0x3dac6572	0.08417787
245	0x3e925a74	0.28584635
246	0x3eed5c91	0.46359685
247	0x3fee1fa7	1.860341
248	0x3b3f3817	0.002917772
249	0xbf0c526c	-0.54813266
250	0xbd9bb134	-0.07602158
251	0xbf194e3a	-0.5988499
252	0xbe61d24b	-0.22052877
253	0xbdb1750f	-0.08664905
254	0x3f044fde	0.5168437
255	0xbf12abd2	-0.57293427

encoder_dense.0.0.bias f4 [16]
0	0xbe71bf41	-0.23608114
1	0x3e3f3db6	0.18675885
2	0xbe5540f0	-0.20825553
3	0x3e2bafa3	0.16766219
4	0x3e01b61a	0.12667122
5	0xbf84f334	-1.038672
6	0x3edafae2	0.42769533
7	0x3eb8920d	0.36048928
8	0x3f7532c3	0.9578058
9	0x3dfbfa4a	0.12303598
10	0xbd2fdd2b	-0.04293553
11	0x3e960726	0.2930233
12	0xbe66b5a7	-0.22530232
13	0x3f295459	0.6614433
14	0x3e48489a	0.19558945
15	0xbeb68a22	-0.35652262
